neuralhydrology/runs/test_run_0703_132349/test_run_0703_154420/test_run_0703_162035/model_epoch001.pt (torch, 7651 bytes, 5 tensors)

lstm.weight_ih_l0 f4 [64, 5]
0	0x3dc6fac9	0.09715802
1	0x3e4e99a7	0.20175801
2	0xbdcb2c47	-0.099205546
3	0xbde255a0	-0.11051488
4	0x3d9a200c	0.07525644
5	0x3d26a7b2	0.04068727
6	0x3e679d6a	0.22618642
7	0xbe06e0a8	-0.13171637
8	0x3d8021f8	0.06256479
9	0x3df9477a	0.12171836
10	0xbe29e938	-0.16592872
11	0x3b44047d	0.0029909902
12	0x3df44de7	0.11928921
13	0xbdec0ccf	-0.115258805
14	0x3ce816b2	0.028331134
15	0xbe783f5a	-0.24242917
16	0xbe532299	-0.20618667
17	0xbdb68b8f	-0.089133374
18	0xbd180124	-0.037110463
19	0x3d67f370	0.056628644
20	0x3d85e0ec	0.06537041
21	0x3d9a5601	0.07535935
22	0x3e39b774	0.18136388
23	0xbe370973	-0.17874698
24	0x3e1803fc	0.1484527
25	0xbe3c88eb	-0.18411605
26	0xbd46951e	-0.048482053
27	0xbdd6adbb	-0.10482355
28	0xbe73eac2	-0.23820022
29	0x3d0121c1	0.03152633
30	0xbe1ed02f	-0.15509103
31	0xbd3ace31	-0.045606796
32	0xbda3a847	-0.07991081
33	0x3cd3ffc0	0.025878787
34	0xbdbfebc8	-0.093711436
35	0x3e149e6c	0.14513558
36	0x3e59aa68	0.21256411
37	0xbdd7a3fc	-0.105293244
38	0x3d6a9965	0.057275195
39	0x3d84271b	0.06452771
40	0xbde628c6	-0.11238246
41	0xbe5d181f	-0.21591233
42	0xbe2bcfea	-0.16778532
43	0xbe0b2540	-0.13588428
44	0x3dc0442a	0.09388001
45	0x3ddb4881	0.107071884
46	0x3db1bcc1	0.0867858
47	0xbe091193	-0.1338561
48	0x3e067c11	0.13133265
49	0xbe80de72	-0.25169712
50	0xbd9e6c8f	-0.0773555
51	0x3e4d6cb8	0.20061004
52	0x3e34db9b	0.17661898
53	0xbe1014d8	-0.14070451
54	0xbe6b5868	-0.22982943
55	0x3e5e3e5a	0.21703473
56	0xbe061ec5	-0.13097675
57	0xbe09cdea	-0.13457456
58	0x3e62af71	0.22137238
59	0x3ded2eef	0.115812175
60	0xbe0ac36e	-0.13551113
61	0xbe507da8	-0.20360434
62	0x3d4910bb	0.04908822
63	0x3e108a9e	0.14115378
64	0x3dd8f48a	0.10593517
65	0xbde20710	-0.11036503
66	0xbe223eb7	-0.15844236
67	0x3e76317d	0.24042316
68	0x3d5c0ef8	0.053725213
69	0xbc61f6d1	-0.013791756
70	0xbdb6f7a1	-0.0893395
71	0x3e0a3e43	0.13500313
72	0x3ce83128	0.028343752
73	0x3e79dd41	0.24400808
74	0xbe206e85	-0.1566716
75	0x3e19ecf8	0.15031803
76	0x3dd33566	0.10312919
77	0xbe00be87	-0.1257268
78	0xbdc4420c	-0.0958291
79	0xbe1b3b5a	-0.1515936
80	0x3d9241ae	0.07141434
81	0xbe23586d	-0.159517
82	0x3c8bd869	0.017070966
83	0x3d836f07	0.06417661
84	0x3db34020	0.08752465
85	0x3e77a907	0.24185573
86	0x3906de4e	0.00012862051
87	0xbd81e5c9	-0.06342656
88	0xbe13de6f	-0.1444032
89	0x3e5738b9	0.21017732
90	0xbd8d2915	-0.068926014
91	0x3d3593a8	0.04433027
92	0x3de8ecc7	0.11373287
93	0x3e7106b4	0.23537713
94	0xbc0c75d8	-0.008573018
95	0xbdd5541b	-0.104164325
96	0xbdc68880	-0.09694004
97	0xbe1ded5f	-0.15422581
98	0xbc8677bd	-0.016414518
99	0xbd8be23f	-0.068302624
100	0xbe153719	-0.145718
101	0xbd78968f	-0.06069046
102	0xbc0e6271	-0.008690462
103	0x3c597c9b	0.013274337
104	0x3e07c4e3	0.132587
105	0x3e27ec6c	0.16398782
106	0x3d606c25	0.054790635
107	0x3e3a3b8f	0.18186782
108	0xbe12a704	-0.14321524
109	0x3e4fc989	0.20291723
110	0x3e1732b6	0.14765438
111	0x3e377cd5	0.17918713
112	0x3d631b8c	0.055446193
113	0xbd9440e8	-0.072389424
114	0x3df6728f	0.12033569
115	0xbdb9839c	-0.090583056
116	0x3c6f104c	0.014591288
117	0x3e2c2b21	0.16813327
118	0x3e746a7d	0.23868747
119	0x3e2e681d	0.17031904
120	0xbe069ab3	-0.1314495
121	0x3d9694fa	0.07352634
122	0x3deeff88	0.116698325
123	0x3e530dc7	0.20610724
124	0x3e4951d7	0.19660126
125	0xbdb57f7f	-0.088622086
126	0xbdd9796c	-0.106188625
127	0xbe4e72c6	-0.2016097
128	0x3e2984fe	0.16554639
129	0xbd361c20	-0.044460416
130	0xbe68959e	-0.22713324
131	0x3dbc5560	0.091959715
132	0x3db98286	0.090580985
133	0x3d4b9d91	0.049710814
134	0xbe076daf	-0.13225435
135	0xbe0c48c8	-0.13699639
136	0x3e6351f0	0.22199225
137	0x3da7730c	0.0817624
138	0xbd92cd30	-0.07168043
139	0xbe4824a2	-0.19545224
140	0xbe1a5986	-0.15073213
141	0x3db2ae05	0.08724598
142	0x3d27bf54	0.04095395
143	0x3e633d86	0.22191438
144	0x3e25477a	0.16140547
145	0xbcd2b342	-0.025720242
146	0xbe3b6d5e	-0.18303439
147	0xbe0905ac	-0.1338107
148	0xbc435882	-0.011922957
149	0xbdcc1add	-0.09966061
150	0x3da5ae65	0.08089904
151	0xbe3111f1	-0.17292
152	0xbddf7d95	-0.10912625
153	0xbe671de1	-0.22569992
154	0xbd0ccc5d	-0.034374584
155	0x3dc557e7	0.09635907
156	0xbd7880ce	-0.060669713
157	0x3c102e78	0.0088001415
158	0xbd59cbcc	-0.05317287
159	0xbbdb728d	-0.006697005
160	0x3dec74fa	0.11545749
161	0x3e21b756	0.15792593
162	0xbd870bcd	-0.06594048
163	0xbe44e601	-0.19228365
164	0x3cd7e198	0.026352689
165	0x3b8e181b	0.0043363697
166	0x3e2717d7	0.16317688
167	0x3e35d1c3	0.17755799
168	0x3e5f1839	0.21786584
169	0xbe002bc7	-0.125167
170	0x3e3a9b71	0.18223359
171	0x3e5492d3	0.20759134
172	0x3e6be3d2	0.23036125
173	0x3c7a17d4	0.01526447
174	0x3e3faa73	0.18717365
175	0xbdb63011	-0.08895887
176	0x3ca03926	0.0195585
177	0xbe76f7bd	-0.24117942
178	0xbb3af0ea	-0.0028524944
179	0xbe395674	-0.18099385
180	0x3b2accfa	0.0026062117
181	0x3e5d6d28	0.21623671
182	0x3bc35f8d	0.0059623183
183	0xbd0a8f61	-0.033828143
184	0xbe409fb3	-0.1881092
185	0x3dd4eff2	0.103973284
186	0xbd7fb567	-0.062428858
187	0x3e0b8a2f	0.13626932
188	0xbbf4e1ac	-0.0074731912
189	0xbca2fb84	-0.019895323
190	0xbe409d4e	-0.18810007
191	0x3e105b88	0.14097416
192	0xbe7f4d58	-0.24931848
193	0x3d4b5241	0.04963899
194	0xbde077d6	-0.10960357
195	0x3daadb85	0.08342651
196	0x3e49652f	0.19667505
197	0x3e1a5a48	0.15073502
198	0xbdc241d3	-0.09485211
199	0xbd8fab05	-0.07015041
200	0xbe37b5ea	-0.17940488
201	0x3dd70b2d	0.105001785
202	0x3e5326bd	0.20620246
203	0x3df8d64f	0.12150251
204	0xbe4c3da7	-0.19945394
205	0x3e16174b	0.14657323
206	0x3e4d6bf6	0.20060715
207	0xbdaf1ba1	-0.08550192
208	0x3e170c24	0.14750725
209	0x3e2567fc	0.16152948
210	0xbe3289e1	-0.17435409
211	0x3d4db1bb	0.050218325
212	0xbc851034	-0.016243078
213	0x3dc34788	0.09535128
214	0xbdf28a2c	-0.118427604
215	0x3d2f361d	0.042776216
216	0xbcaea3bc	-0.021318309
217	0xbd85c184	-0.06531051
218	0xbe0f7703	-0.14010243
219	0x3c9c7d87	0.019102825
220	0xbe3aea49	-0.18253435
221	0xbd4cbe13	-0.049985956
222	0x3e72a36f	0.23695157
223	0x3db3a3bb	0.087714635
224	0xbe4c8f9d	-0.19976659
225	0xbd96daa3	-0.073659204
226	0x3e2c9848	0.16854966
227	0x3c67fa25	0.01415876
228	0x3dfcdf47	0.12347274
229	0xbdc9c171	-0.09851349
230	0xbbccaa53	-0.00624589
231	0xbdbaee83	-0.09127524
232	0xbd254336	-0.0403473
233	0xbbfb6a6a	-0.0076725977
234	0x3e00954a	0.1255695
235	0x3d8cd13e	0.06875847
236	0x3dbde4c9	0.09272153
237	0xbd14d634	-0.036337093
238	0x3e6ca61b	0.23110239
239	0x3dd16ce2	0.10225846
240	0x3e0bacd1	0.13640143
241	0xbddee8ba	-0.10884233
242	0x3c007377	0.007840029
243	0x3d8fce19	0.07021732
244	0xbde74f14	-0.1129438
245	0x3de42618	0.11140078
246	0xbe161f13	-0.14660291
247	0xbe40b1a0	-0.18817759
248	0x3e649bae	0.22325012
249	0x3da10eb6	0.07864134
250	0x3e81221f	0.25221345
251	0x3da93743	0.082624935
252	0xbd874e91	-0.06606782
253	0x3e5a8ada	0.2134203
254	0x3e5ae669	0.21376957
255	0xbe81f522	-0.25382334

lstm.weight_hh_l0 f4 [64, 16]
0	0x3dfb823a	0.12280698
1	0x3d8d8a8f	0.069111936
2	0x3d682ad5	0.056681473
3	0xbe1b4f16	-0.15166888
4	0xbe7dc745	-0.24783047
5	0xbe769e85	-0.24083908
6	0xbdbf3947	-0.09337097
7	0xbd85435c	-0.065069884
8	0xbddfa629	-0.109203644
9	0xbdbd9305	-0.092565574
10	0x3e487fe8	0.19580042
11	0x3e195da6	0.1497713
12	0x3e790a45	0.24320324
13	0xbe1e5bb9	-0.15464677
14	0x3e12d7db	0.14340155
15	0x3e127fc6	0.14306554
16	0xbe326637	-0.17421804
17	0x3d90efcc	0.070769876
18	0x3e317d61	0.17332985
19	0xbd4dad6b	-0.050214212
20	0xbdd06e76	-0.10177319
21	0x3da361be	0.07977627
22	0x3dca54aa	0.0987943
23	0xbdfbd5db	-0.12296649
24	0x3e66d9df	0.22544049
25	0x3d0a62da	0.03378568
26	0x3dcd6adc	0.100301474
27	0xbe1d9cc7	-0.15391837
28	0xbe70ca62	-0.23514703
29	0xbe4328e0	-0.19058561
30	0x3e06b50f	0.13155006
31	0xbdf08ec7	-0.117459826
32	0x3e3f10d0	0.18658757
33	0x3d624850	0.055244744
34	0xbe808e0e	-0.2510838
35	0x3b33d49e	0.0027439962
36	0x3e11bb04	0.14231497
37	0xbe121fb4	-0.14269906
38	0x3d2941b2	0.041322418
39	0xbdba67f3	-0.09101858
40	0xbe56a8a4	-0.20962769
41	0xbdf7155c	-0.12064621
42	0xbe0bdef1	-0.13659264
43	0xbe690e95	-0.22759469
44	0x3cccdd7f	0.025007961
45	0x3cc6dcd3	0.024275219
46	0x3e14707d	0.14496036
47	0x3e57f168	0.21088183
48	0x3d91f072	0.071259394
49	0x3d10e94d	0.035378743
50	0xbdfd52f2	-0.12369336
51	0xbc496479	-0.012292021
52	0xbdcb08b0	-0.099137664
53	0xbd291a15	-0.04128464
54	0xbe5adf18	-0.21374166
55	0x3deb8ec8	0.11501843
56	0x3d991699	0.07475013
57	0xbd1b7597	-0.03795394
58	0xbe0240d6	-0.12720045
59	0xbe162722	-0.14663365
60	0x3d4136cc	0.0471714
61	0xbe5db333	-0.2165039
62	0xbde0ee65	-0.1098297
63	0x3d8d8dba	0.06911798
64	0x3e05186b	0.12997596
65	0xbdb04ce4	-0.08608416
66	0x3e3c0dfe	0.18364713
67	0xbcf2e2e5	-0.029649207
68	0x3cb7bfa9	0.022430258
69	0x3e029df5	0.12755568
70	0x3e234853	0.15945558
71	0xbdf6789a	-0.12034722
72	0xbdee0cae	-0.11623512
73	0xbe35e88a	-0.17764488
74	0x3e067b1b	0.13132899
75	0xbd767a9e	-0.06017553
76	0xbdcc5618	-0.099773586
77	0xbd87a574	-0.066233546
78	0xbe1287f9	-0.14309682
79	0x3d6f2acb	0.05839042
80	0xbd9c9e59	-0.0764739
81	0xbe4e545d	-0.2014937
82	0x3ddb8280	0.1071825
83	0x3e64d5b1	0.22347142
84	0xbd8a4d4d	-0.06753025
85	0x3e2a66fb	0.16640846
86	0xbe426002	-0.18981937
87	0x3e3ccc7f	0.18437384
88	0xbe7e9694	-0.24862128
89	0x3ca05da3	0.0195759
90	0xbe54f166	-0.20795211
91	0xbddd936f	-0.10819136
92	0x3e65b287	0.22431384
93	0xbd85bf2f	-0.06530606
94	0x3d9708e5	0.07374743
95	0xbcab7743	-0.020930892
96	0x3cdcbaaa	0.026944477
97	0x3e5de71a	0.2167019
98	0x3e2f0079	0.17090024
99	0x3c84277b	0.016132107
100	0xbe0507f1	-0.1299131
101	0xbcd9d87a	-0.026592482
102	0x3de6e9d2	0.112750664
103	0x3d96b598	0.07358855
104	0xbd3abd7e	-0.04559087
105	0xbe0ea315	-0.13929398
106	0xbe53e919	-0.20694388
107	0x3e3c35cd	0.18379898
108	0xbc941bd3	-0.018079674
109	0x3d1c2407	0.038120296
110	0x3e5b83b8	0.21436965
111	0x3e181716	0.14852557
112	0x3d200627	0.039068367
113	0x3e533def	0.20629095
114	0x3b588173	0.0033036142
115	0xbe7407ad	-0.23831053
116	0xbd82b7c5	-0.063827075
117	0x3da5f02f	0.08102452
118	0xbb3904d8	-0.0028231647
119	0x3dcd2aae	0.10017906
120	0x3dfc6564	0.12324026
121	0x3d357c5d	0.044308055
122	0xbe0cdb9e	-0.13755652
123	0x3d5118f5	0.05104919
124	0x3e36d33c	0.17854017
125	0xbd8c407e	-0.068482384
126	0x3dff606c	0.12469563
127	0x3cb76ec6	0.022391688
128	0xbd765a4a	-0.0601447
129	0xbcf63a91	-0.030057224
130	0x3e2f67b8	0.1712941
131	0x3e35e938	0.17764747
132	0xbe4850ea	-0.19562116
133	0x3dc222d5	0.094793
134	0xbe651c84	-0.22374159
135	0x3e7f62a7	0.24939977
136	0xbcb27e65	-0.021788785
137	0xbd4f19a4	-0.050561562
138	0xbe632bc4	-0.22184664
139	0x3da96851	0.0827185
140	0x3dea20ff	0.11432075
141	0xbdac777f	-0.084212296
142	0xbe82d7b7	-0.25555202
143	0x3e44a905	0.19205101
144	0x3e100f51	0.14068343
145	0xbd33eb50	-0.043925583
146	0xbe6b8dfd	-0.23003383
147	0xbe746165	-0.23865278
148	0xbe72f25c	-0.23725265
149	0xbdacae47	-0.08431678
150	0xbe6201db	-0.2207102
151	0xbe765dc4	-0.24059206
152	0x3d8130da	0.06308146
153	0xbe0134cb	-0.12617795
154	0x3bfbc34d	0.007683194
155	0x3cc1aefa	0.023643006
156	0x3e33931f	0.17536591
157	0xbe1a7250	-0.1508267
158	0x3e3727cc	0.17886275
159	0xbe4a7cdf	-0.19774197
160	0x3dd5ceb1	0.10439814
161	0xbde89471	-0.11356438
162	0xbdb4dd86	-0.08831315
163	0x3dd7e585	0.10541824
164	0x3db69da8	0.08916789
165	0xbd02093c	-0.031747088
166	0x3e527c6d	0.20555277
167	0x3e6b0680	0.22951698
168	0x3c82599e	0.015911873
169	0x3debfd77	0.11522954
170	0xbe0ca453	-0.1373456
171	0xbe40d628	-0.18831694
172	0x3d2d8c96	0.0423704
173	0xbe626477	-0.22108637
174	0xbe46bb4a	-0.19407383
175	0xbe01e7d7	-0.12686096
176	0x3e72f315	0.23725541
177	0xbd4abd34	-0.049496844
178	0x3d83fb5e	0.06444429
179	0xbe21cd6c	-0.15801018
180	0x3da4c9a2	0.08046271
181	0x3ded327a	0.11581893
182	0x3db2418b	0.087039076
183	0xbe16f8b3	-0.14743309
184	0xbe64ccf0	-0.22343802
185	0xbe237c94	-0.15965492
186	0x3e35009a	0.1767601
187	0xbd41970a	-0.047263183
188	0xbc7110ab	-0.014713447
189	0x3e5979b2	0.2123783
190	0xbe31f103	-0.17377095
191	0x3e3f6699	0.18691482
192	0xbda077f1	-0.07835377
193	0x3e598460	0.21241903
194	0xbd7852ef	-0.060625967
195	0xbda72119	-0.0816061
196	0xbdd75c5e	-0.105156645
197	0x3e14bab2	0.14524344
198	0xbb9164a0	-0.0044370443
199	0x3d9a9755	0.075483955
200	0xbd55f6de	-0.052237384
201	0x3dce374b	0.1006914
202	0x3e6eaf4f	0.23309062
203	0x3e1c8668	0.15285647
204	0x3dab2c52	0.08358063
205	0xbe4c955d	-0.19978853
206	0x3d87faf9	0.06639666
207	0xbe326edb	-0.174251
208	0x3dd834ad	0.10556922
209	0xbdacf9e7	-0.084461026
210	0x3dd6e0ce	0.10492097
211	0xbd403848	-0.046928674
212	0xbd8f8692	-0.07008089
213	0x3e6e6496	0.23280558
214	0xbe43fcb0	-0.19139361
215	0x3e3cdfba	0.1844472
216	0x3c9a9072	0.018867705
217	0x3d8f17f0	0.069869876
218	0xbd043301	-0.032275204
219	0xbbe3de26	-0.0069539724
220	0x3d704d01	0.058667187
221	0x3dbdfad3	0.092763565
222	0x3dd0bb23	0.101919435
223	0xbe337001	-0.17523195
224	0x3ddf533b	0.10904547
225	0xbd1bafc3	-0.038009416
226	0x3de8a0fe	0.11358832
227	0x3d9997f2	0.074996844
228	0x3def7106	0.116914794
229	0xbc942e5a	-0.018088508
230	0xbe1df1f1	-0.15424325
231	0x3e1c3098	0.15252912
232	0xbe610a06	-0.2197648
233	0x3e1054ff	0.14094923
234	0xbe572f41	-0.2101412
235	0xbe5a6d34	-0.2133072
236	0x3e0c182b	0.13681094
237	0xbe348760	-0.17629766
238	0x3dce34f6	0.10068695
239	0xbe4c99ed	-0.19980593
240	0x3c677da8	0.01412908
241	0xbe3cccb7	-0.18437468
242	0xbd936d07	-0.0719853
243	0x3e6d506f	0.23175214
244	0x3dd4ff56	0.10400264
245	0xbd559d34	-0.052151874
246	0x3e110cfe	0.14165112
247	0x3e6b8a3b	0.2300195
248	0x3e3213a1	0.173903
249	0x3d9425ac	0.07233748
250	0xbe5fff11	-0.21874644
251	0x3b6b1d6d	0.0035875693
252	0x3dc1d0f3	0.09463682
253	0xbbd6ec7b	-0.0065589524
254	0xbe45586d	-0.19272013
255	0xbe2bada7	-0.16765462

lstm.bias_ih_l0 f4 [64]
0	0x3a080fa5	0.00051903195
1	0x3e123ce2	0.14281037
2	0x3e10c13c	0.14136213
3	0xbe1f1d49	-0.15538515
4	0x3e144fd5	0.14483579
5	0x3e3f7620	0.18697405
6	0xbe27d1f4	-0.16388685
7	0xbdc5db84	-0.0966101
8	0xbe0c625b	-0.13709395
9	0xbe1e7d02	-0.15477374
10	0x3dcdb705	0.10044674
11	0x3e108567	0.14113389
12	0x3e7cac04	0.24674994
13	0xbd02c05c	-0.03192173
14	0xbe465b05	-0.19370659
15	0xbe28dd6c	-0.16490716
16	0x3d96f31c	0.07370588
17	0x3de42f1f	0.111418
18	0xbcbf7c3d	-0.023374671
19	0xbe581652	-0.21102265
20	0x3e72f94c	0.23727912
21	0xbd5306bd	-0.051520098
22	0xbdd9d214	-0.10635772
23	0xbdb8b65b	-0.090191565
24	0xbdebe1b6	-0.1151766
25	0xbc4f0efd	-0.012637851
26	0x3e5518b8	0.2081021
27	0xbe12f674	-0.14351827
28	0x3dc04d9b	0.09389802
29	0xbda49408	-0.08036047
30	0x3e80903e	0.25110048
31	0x3e2acb20	0.16679049
32	0x3dc1458e	0.09437095
33	0xbd03719a	-0.03209076
34	0x3d3c4d91	0.04597241
35	0xbdc5a52e	-0.09650646
36	0xbe57c1fa	-0.2107009
37	0x3e472db1	0.19451024
38	0xbc863134	-0.016380884
39	0xbdcdf776	-0.10056965
40	0x3d3ff38f	0.046863135
41	0x3e5c2134	0.21497041
42	0x3b72287a	0.0036950395
43	0xbe02b695	-0.12764962
44	0x3e1ea6cd	0.15493317
45	0xbdd03633	-0.10166588
46	0x3e73b204	0.23798376
47	0x3e0cfcda	0.1376833
48	0x3bff90c6	0.0077992408
49	0xbdf110a8	-0.11770755
50	0x3e5a942e	0.21345589
51	0x3e105dd7	0.14098297
52	0x3e71f23a	0.23627558
53	0x3e480b98	0.19535673
54	0x3e0f74e0	0.14009428
55	0xbde13b74	-0.10997668
56	0xbc67f39a	-0.0141572
57	0xbe626b05	-0.22111137
58	0x3c0b258c	0.008492839
59	0x3dc2c7bd	0.09510753
60	0xbddabfaf	-0.10681092
61	0xbe54064d	-0.20705529
62	0xbd709bcb	-0.058742326
63	0xbc325da6	-0.010886585

lstm.bias_hh_l0 f4 [64]
0	0xbdbbdd03	-0.09173014
1	0x3e004e42	0.12529853
2	0x3dc486c2	0.095960155
3	0x3e7f49e3	0.2493053
4	0xbe7a3979	-0.24435987
5	0x3e5e50e6	0.21710548
6	0x3df72bba	0.12068887
7	0xbd44cc2e	-0.048046283
8	0xbe81620a	-0.2527011
9	0xbe73df1a	-0.23815575
10	0x3e82436e	0.2544207
11	0x3e0a40bd	0.13501258
12	0xbe0264a0	-0.12733698
13	0xbe343253	-0.17597322
14	0xbcfa0027	-0.03051765
15	0x3cb98770	0.02264759
16	0x40408a00	3.0084229
17	0x403f6940	2.990799
18	0x4040ad42	3.0105748
19	0x40403b5a	3.0036225
20	0x40404f17	3.0048273
21	0x4040a943	3.010331
22	0x403fd3a7	2.9972932
23	0x40409530	3.0091057
24	0x404009f6	3.000608
25	0x40408a11	3.008427
26	0x403f58e6	2.989801
27	0x40408ace	3.008472
28	0x404050c5	3.0049298
29	0x403f9bcc	2.993884
30	0x4040570d	3.0053132
31	0x40405715	3.005315
32	0xbb0a48d0	-0.0021100529
33	0x3dfd2994	0.12361446
34	0xbbfe9573	-0.0077692806
35	0xbe4b7a91	-0.19870974
36	0x3c6a2884	0.014291886
37	0xbe285e39	-0.16442193
38	0x3e3e4bf2	0.18583658
39	0xbe6c7828	-0.23092711
40	0xbe05f6ea	-0.13082471
41	0xbdd0f67d	-0.10203264
42	0x3e4a4083	0.19751172
43	0x3e656731	0.22402646
44	0xbe1512c1	-0.14557935
45	0x3e632d7f	0.22185324
46	0xbe3473e4	-0.17622334
47	0xbe317020	-0.17327929
48	0xbe8343bb	-0.25637612
49	0x3cc18f70	0.023627967
50	0x3d957a8a	0.07298763
51	0x3db35c26	0.0875781
52	0x3d15ffe0	0.036620975
53	0x3e249b48	0.1607486
54	0xbc8f7191	-0.017510207
55	0x3e817e80	0.25291824
56	0xbe19c21c	-0.15015453
57	0x3e497557	0.19673668
58	0x3e3c790a	0.18405548
59	0x3e3cc168	0.18433154
60	0xbe7f6577	-0.2494105
61	0x3e453ad9	0.1926073
62	0x3e6c501c	0.23077434
63	0x3e52d4ac	0.2058894

head.net.0.weight f4 [1, 16]
0	0xbe64c7f0	-0.22341895
1	0x3dd05a5f	0.10173487
2	0xbcfbf06b	-0.030754289
3	0x3e540d3f	0.20708178
4	0x3d95ba94	0.073109776
5	0xbd88f7fd	-0.06687925
6	0x3dcc0f52	0.099638596
7	0xbdb62c2f	-0.08895146
8	0xbe707174	-0.23480779
9	0xbd27b394	-0.040942743
10	0xbe06fc9f	-0.13182305
11	0x3d44f49f	0.04808485
12	0xbdee7e56	-0.116451904
13	0x3d603e67	0.05474701
14	0x3de9aa4a	0.11409433
15	0x3ce63db2	0.02810559
