neuralhydrology/runs/test_run_0703_132025/test_run_0703_154809/test_run_0703_160429/model_epoch001.pt (torch, 25596 bytes, 33 tensors)

embedding_net.statics_embedding.net.0.weight f4 [4, 2]
00000000: 605a 623f d891 3fbf ec50 93bf baea 803f
00000010: 1763 19bf 12db 1ebf 8089 923f 49d4 203f
0.8841915 -0.74831915 -1.150907 1.0071633 -0.59916824 -0.62053025 1.1448212 0.6282392

embedding_net.statics_embedding.net.0.bias f4 [4]
00000000: 4ee6 1bbc 5f14 0dbc d3f8 2a3c f101 063c
-0.009515358 -0.008610814 0.010435301 0.008179174

embedding_net.statics_embedding.net.3.weight f4 [8, 4]
00000000: c7ef 03bf 5e22 2abf f7b9 513e 7a18 063f
00000010: a9c5 b93e fe05 bdbe 7931 06bf d8bb 543f
00000020: 431c 4a3e 8218 9abc 8fe0 93be 4f20 003f
00000030: b8e6 b93d aca2 4c3f 1d72 14bf a1f9 023f
00000040: f73f ab3e 95d5 d9be c3f9 92be 7b08 11bf
00000050: c878 6e3e c381 06bf df94 993d aeb4 373e
00000060: a0b4 843e f630 503f aa9d 87bc 1d91 4dbe
00000070: 72e7 0abf 6e6d 323f cdd4 8abe 73ff 403e
-0.51537746 -0.6645869 0.20481096 0.523811 0.36283615 -0.36918634 -0.5241924 0.83099127
0.19737343 -0.018810514 -0.28882262 0.500493 0.09077209 0.7993572 -0.57986623 0.51162153
0.3344724 -0.42545763 -0.28706178 -0.56653565 0.23288262 -0.5254175 0.07499098 0.17940018
0.25919056 0.8132471 -0.016554672 -0.20074888 -0.5425941 0.69698226 -0.2711548 0.18847446

embedding_net.statics_embedding.net.3.bias f4 [8]
00000000: 6912 293c c988 103c fbb8 1fbc 0173 29bc
00000010: 6375 29bc ecdf 233c e2ee 253c 1b93 903a
0.010319331 0.008821675 -0.009748693 -0.0103423605 -0.010342929 0.010002118 0.010127755 0.0011030169

embedding_net.dynamics_embedding.net.0.weight f4 [4, 2]
00000000: 9b40 523f 2da5 31be 0df5 5fbf cbc9 22bf
00000010: 9ea6 b0bd 23c3 e5be bb0f e63e 9075 4cbf
0.8212983 -0.17348166 -0.8748329 -0.6358916 -0.0862553 -0.4487544 0.44933876 -0.79866886

embedding_net.dynamics_embedding.net.0.bias f4 [4]
00000000: f7e9 2e3c 0ac7 753a d2c2 213c 6f6c 28bc
0.010675899 0.00093756674 0.009873109 -0.010279759

embedding_net.dynamics_embedding.net.3.weight f4 [8, 4]
00000000: 8637 c6be fef0 53bf f1b0 0bbe 1dd6 943e
00000010: 61e7 7ebe 484d 493d a949 21be 51ba 88bd
00000020: ee51 e23e 188b 023f 953b 5abe 6606 26bf
00000030: 0832 903d 7182 eabc 9faa 173f 56fd 153f
00000040: 9f84 463f ae86 d2be 3191 273f 95e5 373f
00000050: c6a8 523f cdc1 ef3c 1301 203f 91ad a1be
00000060: b6fd e13d 7243 54bf 1bfe 093d 1723 15bf
00000070: 3629 00bc 9bd5 473f a0af 3c3c 202d 09be
-0.38714236 -0.827896 -0.13641717 0.29069605 -0.24892952 0.049145967 -0.15750755 -0.06676162
0.44203132 0.5099349 -0.21311791 -0.64853513 0.07040793 -0.028626652 0.5924472 0.58589685
0.77546114 -0.41118377 0.6545592 0.7183469 0.8228878 0.029267216 0.6250164 -0.31577733
0.1103472 -0.82915413 0.0336896 -0.5825667 -0.007822325 0.7806031 0.011516482 -0.1339612

embedding_net.dynamics_embedding.net.3.bias f4 [8]
00000000: 9540 28bc 590c 30bc 7b9f 133c 243b 1bbc
00000010: 9ba2 2a3c 50f7 cf3b 3f67 1c3c 537d 1bbc
-0.010269304 -0.010745131 0.009010191 -0.009474549 0.010414745 0.0063466206 0.0095461 -0.009490329

encoder.layers.0.self_attn.in_proj_weight f4 [48, 16]
00000000: 918f 29bc c2bf 29bd 4eae 81be a147 a63d
00000010: 9014 183e 8fa9 bcbd 85b9 95be 912f 783e
00000020: 6e0c 283e 79ff 33bd 4afa 90be 9205 9dbe
00000030: ce72 96be 986c e1bd 1941 87be 267a 9abe
00000040: eb67 b13d e4e5 0cbe d27c 733c 879b 3a3c
00000050: 8693 5f3e 727f 38be 5e59 743e e52b 6fbe
00000060: 43a6 0d3e 2853 11be 2cc8 febd 9fcb 0e3e
00000070: 7b88 df3d ba51 ccbc e958 733e 1ce1 933e
00000080: 1199 4c3c c4c1 083e 323c 20be b79d 67be
00000090: d537 143d 3132 92be e44f 76be 2e5b 36be
000000a0: d9cc 8d3e 5426 42bd 1b96 b93d a8db 52be
000000b0: ade2 d43d 8288 043e 0a43 ef3d 8343 36be
000000c0: c767 87be bc33 36be 88ed 593e d25d 89bd
000000d0: a535 42bc 73a4 8a3e f5d1 51be 1809 7e3e
000000e0: ad7c e3bd 7fa2 8e3e 0fdd 8fbd 46e7 e0bd
000000f0: 83ed f5bd 1789 253e c405 e83b 1c8b e33d
00000100: 0ff5 41bd 66e9 033e 1cae 8b3e 3f8d 3a3e
00000110: 7922 e93d 1cf1 65be 74a2 b33d 10ef 50be
00000120: 35cb 123e eec4 cabd 4ff5 163e fac8 5fbd
00000130: d1d8 9cbd e00f 943e ce3d 6bbe a4c6 713e
00000140: 5ac0 743c 79b5 bf3d a2f8 07bd aec3 97bb
00000150: a45a 7f3d f94e f33d c1f5 e53d 0806 55be
00000160: 9dfe 193e 6b6e 68bd a9f7 ff3d ca2b c33d
00000170: 5142 243e 6d92 debb 2a3d 50be a57a 423e
00000180: f8e9 93be b488 1b3e 5af3 8abe 5952 73be
00000190: 41a6 253e f2f7 6abe 0851 d03d 6d3b 80be
000001a0: 4a6d 85ba b1ee 5dbe 4c56 d2bd d997 983e
000001b0: a950 fb3d 52b9 85bd 32f1 423e b689 933e
000001c0: 6d25 6f3e 9a14 b13d dc82 7cbe cc5a 97bc
000001d0: 694e f73d a0c0 d6bb b0d1 62be 99cf 59be
000001e0: 0caf 983e 9e47 7fbe ad0f 653e c63a 37be
000001f0: 2131 5fbe f16c d6bd 3ba0 163e 0901 9ebe
00000200: ab88 9d3d 5c40 32be c41f 08be e05c 7e3d
00000210: e86d 3fbe 16d9 07bc dfa6 66be 953c 7cbe
00000220: 7285 3c3d 35ae 95be 0ed3 fc3d 0192 293e
00000230: 50a2 ee3d 42fc fb3c fed3 1cbe 65f7 573e
00000240: 1077 2fbe 0530 5dbe 1cf9 95be 06f9 5b3d
00000250: 8ca4 7cbd a013 04be f734 613e faec 97be
00000260: a279 8b3e 02db 8fbe adea b63b b754 e5bd
00000270: c636 613d 0a83 ddbd afb1 96bd d42e 54be
00000280: 5f68 d63d 0cab 82be 00b1 10be b60b 43be
00000290: 32d5 5e3e d4e4 1f3e f29a 3cbe e4a7 583d
000002a0: fb2a 953e c6cd 573e b5d3 8f3c e4bc 543e
000002b0: 9921 1e3e bf4f 64be 2bc7 35be 0b6f 9a3d
000002c0: ac5a 8abe 8c09 233e 2ce9 39bc 1951 b5bd
000002d0: 3472 f83d 1291 d5bd d390 c9bc 3b20 88be
000002e0: 2279 8b3e 4320 4cbe eb8e 89be 061f 5d3e
000002f0: f1a2 863e 2025 413e e266 5fbe b44b 263e
00000300: 45cf 46bc df60 8abd 1f2a d83c 3a0d 673e
00000310: 0555 dbbd 86d4 ef3c 3f04 88bd 20e6 a9bc
00000320: fd4e 323e a229 0e3e f0a0 93be 49ea 59be
00000330: 5db5 dabd 85f2 583e d1ac 753e ac66 8f3e
00000340: 659f 17be ff27 97be 8f4f 27be c322 13be
00000350: fe8b c7bd 8cd1 a9bd 083f 7fbe db71 f33d
00000360: 60f2 9abe e75b 8f3e 2f87 943d 0e3f acbd
00000370: 47b1 593e 6332 c43c 2a5c 94be 1977 c2bd
00000380: 2439 2cbd 5eaa 0e3e 7c3e 1ebb 6d6b 0e3e
00000390: 9851 893e a1cd 2b3e 4e53 453d b75a 68be
000003a0: d633 8c3d 3c53 713e f470 023d 5d1e 3cbc
000003b0: a37a 40bd 8486 8c3e 67fe 3a3c dec3 8fbd
000003c0: 1c19 46be a47f 55be 09eb 25be 7f7b 55be
000003d0: 8c82 8a3e 62a4 45be 399f 92be 4f22 9f3d
000003e0: 9adf 66be 886e 473e 49fd ed3c d2ab ffbd
000003f0: 53bf ba3d 79d4 623d 4fb1 c83d ef0a 58be
-0.01034917 -0.04144264 -0.25328296 0.08119131 0.14851594 -0.09212028 -0.29243103 0.24236895
0.16410992 -0.04394481 -0.28315955 -0.30668312 -0.29384464 -0.11007041 -0.26416853 -0.30171317
0.08662399 -0.13759571 0.014861302 0.01138962 0.2183362 -0.18017367 0.23862216 -0.23356588
0.13832955 -0.14191878 -0.124405235 0.13944863 0.109147035 -0.024941314 0.23764385 0.28882682
0.012487666 0.13355166 -0.15647963 -0.22618757 0.036186058 -0.28553918 -0.24053913 -0.1780822
0.2769535 -0.047399834 0.090618335 -0.20591605 0.103947975 0.12942699 0.116827086 -0.17799191
-0.26446363 -0.17793173 0.21282017 -0.06707348 -0.01185361 0.2707859 -0.20490249 0.24808156
-0.111077644 0.2785835 -0.070245855 -0.10981612 -0.120081924 0.16165577 0.0070807654 0.111105174
-0.047352847 0.12882003 0.27281272 0.18217944 0.11383528 -0.22455257 0.0877122 -0.20403695
0.1433533 -0.099008426 0.14742015 -0.054635026 -0.07658542 0.28918362 -0.22972795 0.23610932
0.014938438 0.09360785 -0.0331961 -0.004631481 0.0623423 0.11880297 0.112285145 -0.20803082
0.15038534 -0.056745928 0.12498409 0.095298365 0.16040923 -0.0067923577 -0.20335832 0.18992098
-0.28889441 0.15188867 -0.27138788 -0.23761882 0.16176702 -0.22946146 0.101717055 -0.25045338
-0.0010179665 -0.21673085 -0.10270366 0.2980335 0.12271244 -0.06529488 0.19037321 0.28816003
0.2335412 0.086465076 -0.24659294 -0.018475913 0.120755024 -0.0065537244 -0.22150302 -0.21270598
0.2982105 -0.24929664 0.22369261 -0.17893514 -0.21796085 -0.10469998 0.1470956 -0.30860165
0.07692083 -0.17407364 -0.13293368 0.06210029 -0.1869427 -0.008291503 -0.22524594 -0.24632485
0.0460257 -0.29234472 0.12344943 0.16559602 0.116520524 0.030759934 -0.15315244 0.21090467
-0.17135262 -0.21600349 -0.29291618 0.053704284 -0.06168036 -0.12898111 0.2199286 -0.29672986
0.27241236 -0.28096777 0.0055821748 -0.11197799 0.054983877 -0.10816009 -0.07358109 -0.20720989
0.10469126 -0.25521123 -0.1413002 -0.19047436 0.21761015 0.15614635 -0.18418482 0.052894488
0.29134354 0.2107459 0.017557004 0.20775181 0.15442504 -0.22296046 -0.17751758 0.07540711
-0.27022302 0.1592161 -0.011347096 -0.08853359 0.121311575 -0.104280606 -0.02460519 -0.2658709
0.27240855 -0.19934182 -0.2686685 0.21593866 0.2629619 0.18861818 -0.2181659 0.16239816
-0.012134378 -0.06756758 0.026387272 0.2256364 -0.107095756 0.029276144 -0.06641435 -0.020739615
0.17412944 0.13883069 -0.28833723 -0.21280779 -0.106791236 0.21186264 0.23991705 0.2800802
-0.14806898 -0.29522702 -0.16338943 -0.1436873 -0.09743498 -0.08291921 -0.24926388 0.118869506
-0.30263042 0.27999803 0.07252347 -0.08410464 0.21259032 0.023949808 -0.28976566 -0.09495372
-0.04204668 0.13932177 -0.002414613 0.13908167 0.26820064 0.1677766 0.04817515 -0.22690855
0.068458244 0.23566908 0.031846 -0.011481849 -0.046991955 0.27446377 0.011413193 -0.070197806
-0.19345516 -0.20849472 -0.1620294 -0.20847891 0.27052724 -0.19300988 -0.28637102 0.07770216
-0.22546235 0.19475758 0.02905144 -0.12483944 0.091185234 0.05537841 0.09799444 -0.21097921

encoder.layers.0.self_attn.in_proj_bias f4 [48]
00000000: ccd0 b3bb 5965 efbb cf92 d6bb f8c9 3ebb
00000010: 739a 5b3a f15f 833a 909f f63b 72f7 04bc
00000020: c7f2 183c b33f ebbb 3b9f 6fbb 5a74 1f3c
00000030: d107 113c e3f7 f13b dd98 073c 25fa 94ba
00000040: a19f 013c 68fa 3fbb 868f 7739 f91d 083b
00000050: f065 85ba e4d7 9e3a d8e0 353b 453c baba
00000060: cc5c 893a 2be4 8bbb 68b8 de3b 1750 beb9
00000070: ca2b 81ba 9c84 0cbb 09a0 9dbb 23b1 f6ba
00000080: 7d2d 68bb 4ef5 05bc 1577 1f3c c7b9 1a3c
00000090: 497a 0d3c b3e4 90bb 1c3c 233c 5463 1bbc
000000a0: 10d7 17bc 472e 47bb d078 243c 3098 2e3a
000000b0: 3ea7 24bc 445a 20bc a8e3 91bb 50fe 223c
-0.005487537 -0.0073057828 -0.0065482627 -0.0029112082 0.0008377202 0.00100231 0.0075263456 -0.008115636
0.009335226 -0.0071792244 -0.0036563415 0.00973233 0.008851961 0.0073842867 0.008276192 -0.0011366053
0.007911594 -0.002929354 0.00023609222 0.0020769818 -0.0010177474 0.0012118784 0.0027752426 -0.0014208636
0.0010479926 -0.004269143 0.0067968853 -0.00036299296 -0.0009854969 -0.0021441346 -0.0048103374 -0.0018821101
-0.0035427504 -0.008176161 0.009732981 0.009443707 0.008635112 -0.0044217943 0.009963062 -0.009484131
-0.0092675835 -0.0030392574 0.01003857 0.0006660251 -0.010049639 -0.009787146 -0.0044521876 0.009948328

encoder.layers.0.self_attn.out_proj.weight f4 [16, 16]
00000000: 0cb1 41be 4ba3 d43d 12b8 72bd cfa0 133e
00000010: f617 1e3c c861 52bc 8c23 4bbe a583 203e
00000020: 58a4 7abe eea3 323d ddc7 c8bd 899d be3d
00000030: aa2b 4a3e 0325 1e3e b730 a0bd 3c9b 9bbd
00000040: 97a3 47be ee82 ac3d 2c9d 593e 3a37 003e
00000050: 2d6b 4abe 3a83 143e 580d 493e fe84 aebd
00000060: cbfc 273e 6c25 1b3e 8312 31be 755e 0f3d
00000070: 7ad6 3d3b 2657 c43d 810c 08be 4b90 f63c
00000080: da44 98bb 4eb8 8abd 599a 15be bc26 663c
00000090: fdfb 3fbe c962 7fbd 341d 813e 9a23 903d
000000a0: 6a55 4dbe b52f 8dbd 1459 363e 1a1e ea3b
000000b0: 8598 fb3d bb51 ddbd f84c a0bc 5398 91bd
000000c0: 0f75 4ebd 11ef abbc 7d3b 113e 850e 933d
000000d0: 0ef0 bc3d 04e4 2fbd 013f 733e dc1b cc3d
000000e0: 85c6 0d3e c5f6 03be 4b39 503c 605a 6d3d
000000f0: 2a80 f1bd f118 f83d ea4d 1fbe 36cc 4bbe
00000100: ec5b 643e 03ac a63d 29c7 703e 2786 b43d
00000110: 2bd9 90bd 7554 673e a282 603e 0caa 80be
00000120: bfc1 2c3d 56ec 46bc 6f76 563e e31a 1c3e
00000130: 8e6d 023e 54dd 13be e556 07bd fbce 643e
00000140: 4ad0 14be 73a9 543d 73f4 123e 8caa fabd
00000150: fdd9 40be 3b6d 32be b88d 3c3e 5907 183e
00000160: fb7b 7d3d 5537 7c3e b75b e4bd 0d7b fb3c
00000170: d81b 37bb 0486 45be 456a 913d 2e0c c33d
00000180: c45a 37be 48f1 293d 344f 463e 8942 f23d
00000190: 89a4 28be 4bd3 65be ddf8 803e 0cda e63d
000001a0: b92c 13be 165b 6dbe b4f8 3cbe 3dad f0bb
000001b0: 140b 22be 4d37 703e cbf6 fdbd a5e5 0abe
000001c0: 795f 013d b880 5b3e 7b55 f73d 8fa8 27be
000001d0: 612f c33d dc07 183d be4a 25be 228d 28bc
000001e0: 2715 4f3e 641e 84be 250f b83b 0eae b03d
000001f0: ebb0 563e 368f debd 7556 433e f96d debd
00000200: 878e bfba b624 a23d 7b80 21be b23c 323c
00000210: e779 723e 7db2 d33d 8f1f 943d a702 323e
00000220: 3c16 093e 0f87 8e3d 5e5a 343d 30c9 08be
00000230: cd34 7fbe 2b90 69be a720 d3bd df56 51bd
00000240: 10fc dfbd e469 d4bd 69d1 413e ba22 273e
00000250: 7162 643e 22bb 32be a1b0 0f3e 0779 fa3d
00000260: 776f 27be 6b2f 903d 1767 213e 4b93 40bd
00000270: a92a ecbd 6da1 c63d 1f87 b73d 98f1 edbd
00000280: 8192 523e d06b b73c 5c81 c73d a423 1bbe
00000290: d8fc 7bbe 1c70 49be 5b1f 013e 2a9c 09be
000002a0: 9164 3a3e c48d 6c3d 9408 81be ed92 213b
000002b0: c0bd 223e b81c 1abe f6f9 163d 7e1b 9abd
000002c0: c442 57be 9406 06be 8caa 05be c615 75be
000002d0: e1ee 143d 11e5 083d 3c29 1f3e 5c42 643e
000002e0: 493a 703d d7dd 0e3d 8cb3 e3bd f8a7 f9bc
000002f0: e9b5 a4bd 5941 44bd 2b02 51be 735e f03d
00000300: 08b0 983d ec34 f2bc 7f17 00be 699b 27be
00000310: 696f 813d 55c5 4fbe c28d d0bd b305 b13d
00000320: d6a0 ee3d 37ae b3bd e5d3 3c3e 4afe f9bc
00000330: 0799 083d 44d9 f73d 0f28 2c3e acb5 fdbd
00000340: 8c03 c5bd 0e2b 2ebe bede 053e 3fc6 8cbd
00000350: 030e c4bd 9b07 82bd ad0c 0fbe 3559 4e3d
00000360: b1af 8bbd 4948 49be ffba e43d a104 6e3e
00000370: ab05 7fbd 7cb6 253e 8c7c 53be 42da 4c3e
00000380: dfbd 74be 2d55 e43c 1595 67be 0f0e d9bd
00000390: b598 563e 676d 8ebd 2241 763d 287e 7dbc
000003a0: bb56 1a3d cb5c 5f3e 2c44 373e 3ee5 f43c
000003b0: 3c4b 0fbe 6ccc 57bc 6daf e83d 0f8b 893d
000003c0: cdfa 81bd 913f 1bbe 0c2c 42be 39e9 4c3e
000003d0: 108a 9bbc 835d 373d d895 5a3e d62f 163e
000003e0: 58fe 253d 836b 4e3e 304f 1e3c 04dd 7abe
000003f0: 6206 44bd 2460 b63d f59a 02bc 3a4c e43d
-0.18915194 0.10382708 -0.059257574 0.14416812 0.009649267 -0.012840696 -0.19837779 0.15675218
-0.24476755 0.043613367 -0.09803746 0.09307391 0.19743219 0.15443806 -0.078217916 -0.07597968
-0.19495998 0.0842341 0.21251363 0.12521067 -0.19767447 0.14503184 0.19633996 -0.0852146
0.16405027 0.15150994 -0.17292218 0.03500219 0.002896695 0.09586935 -0.1328602 0.030098101
-0.0046468796 -0.067734346 -0.1460966 0.014047321 -0.1874847 -0.06235007 0.25217593 0.070380405
-0.20052114 -0.06893865 0.17807418 0.0071447017 0.1228495 -0.108066045 -0.019567952 -0.07109132
-0.050404605 -0.02098802 0.14182849 0.07180504 0.09225474 -0.042942062 0.23754503 0.09966251
0.1384526 -0.12887104 0.012708972 0.057947516 -0.117920235 0.12114132 -0.15557066 -0.19902119
0.2230069 0.081382774 0.23513474 0.0881465 -0.070726715 0.22590812 0.21924832 -0.25129735
0.04217696 -0.012141308 0.20943616 0.15244631 0.12737104 -0.14439899 -0.033041853 0.22344582
-0.14532581 0.051919412 0.14351062 -0.122395605 -0.18833156 -0.1742448 0.18413436 0.14846553
0.061885815 0.24630482 -0.11150306 0.030698324 -0.002794018 -0.19289404 0.071003474 0.095238075
-0.17905718 0.04148987 0.19366151 0.11829097 -0.16469015 -0.22443883 0.25189868 0.11272058
-0.14372529 -0.23179278 -0.18454248 -0.0073448704 -0.15824538 0.23458596 -0.12400588 -0.13564165
0.03158519 0.21435821 0.12076851 -0.16372894 0.09530521 0.03711687 -0.16141793 -0.010287555
0.20222913 -0.25804436 0.0056170397 0.08626948 0.20965926 -0.10867159 0.1907595 -0.10860819
-0.001461462 0.07917158 -0.15771668 0.010878729 0.23679315 0.10336778 0.07232582 0.17383824
0.13387388 0.06959354 0.044031493 -0.13357997 -0.24922486 -0.22808902 -0.10308962 -0.051108237
-0.10936749 -0.103717595 0.1892754 0.16321841 0.22303177 -0.17454198 0.14032222 0.122301154
-0.16351114 0.07040294 0.15761982 -0.04701547 -0.11531574 0.09698758 0.08961319 -0.11618346
0.205637 0.022390276 0.0974147 -0.15150315 -0.24608171 -0.19671673 0.12609617 -0.13438478
0.18202426 0.057752386 -0.25201857 0.0024654225 0.15892696 -0.15050018 0.036859475 -0.07524775
-0.21021563 -0.13088447 -0.1305334 -0.23934087 0.036360625 0.03342158 0.15543073 0.22290939
0.058649335 0.03487953 -0.1111823 -0.030475602 -0.08042509 -0.047913883 -0.20410983 0.11736765
0.0745545 -0.02956625 -0.12508963 -0.16367878 0.06320078 -0.2029012 -0.10183288 0.08643665
0.11651771 -0.08773463 0.18440206 -0.030516762 0.033349063 0.12101987 0.16812156 -0.12388167
-0.09619817 -0.17008612 0.1307325 -0.0687375 -0.09572985 -0.06349107 -0.13969679 0.050378043
-0.0682062 -0.19656481 0.11168479 0.23243953 -0.062261265 0.16182894 -0.2065298 0.20005134
-0.23900555 0.027872646 -0.22615464 -0.105983846 0.2095669 -0.069544606 0.06012071 -0.0154719725
0.03768037 0.21812741 0.178971 0.029894467 -0.13993543 -0.013171297 0.11361585 0.067159764
-0.063466646 -0.15160967 -0.18962115 0.20010842 -0.018986732 0.044766914 0.21346223 0.14666685
0.040525764 0.201582 0.009662434 -0.24498373 -0.04785765 0.08905056 -0.007971515 0.111473516

encoder.layers.0.self_attn.out_proj.bias f4 [16]
00000000: 050b 28bc 6492 2dbc 83bb 0b3c d0fc 20bc
00000010: 034f 213c 6ca9 213c 7c4e 273c 04e4 15bc
00000020: 2fa0 243c 9eff 233c a36d 0ebc 5ae7 28bc
00000030: 33ba 25bc 5027 2c3c 4a78 273c f9df 0fbc
-0.0102565335 -0.010593984 0.008528593 -0.0098259 0.009845498 0.0098670535 0.010211583 -0.009148601
0.010047956 0.010009674 -0.008693132 -0.010309065 -0.010115194 0.01050742 0.01022155 -0.008781427

encoder.layers.0.linear1.weight f4 [5, 16]
00000000: 8a7c b2bc 552c 12bb 1176 a63d 2efc 643d
00000010: 9190 3f3c c678 b03c e34a 953d aaeb 3bbc
00000020: 1caa ac3c b3ba 753c ea8e ef3c f64e 56bd
00000030: 2dbb 77bd 8f6f 863c 7e15 a23d e008 d83d
00000040: fd39 a5bd f6ba 153d be7b 0c3c 4261 0f3d
00000050: e250 1abc 9c69 a6bd ba34 a13c b647 95bd
00000060: 3406 9c3d d559 a6bd 5595 2fbd 777c 01bd
00000070: e424 963d 37f8 be3d 4253 7fbd bb6d a23d
00000080: c865 75bd 834b 6ebd 66c8 b9bd d31c 3f3b
00000090: 3e4d 843c 4d39 0b3d 5aa0 d53c fbac 6f3d
000000a0: 6f97 2c3a cd7f c83d 2377 95bd 5706 963d
000000b0: 56e1 8f3d 4d9a 9f3d 9577 bcbd 6c38 9b3d
000000c0: 78ce af3d ca06 a43d f116 afbd f5c3 0b3d
000000d0: 87e0 4cbc e6d3 9f3d 5dcb 0e3d f33a 13bd
000000e0: 122a 593d 53ec bcbc 81e2 c5bd 8062 45bc
000000f0: 5709 83bd 2004 d83c 20a4 4bbd c1b8 a63c
00000100: 8ab3 273d 457f b13b acc9 68bd e903 cd3d
00000110: 6cc3 3ebd 1334 463d efbe 00bd f12f acbd
00000120: 5133 923d 5a7d 893c 0a6d 2e3d d893 bdbd
00000130: 579a 05bd ee69 91bd 7b37 46bd 1d63 b7bd
-0.0217879 -0.0022304256 0.08127988 0.05590456 0.011692182 0.021541964 0.07289674 -0.011469761
0.021077208 0.014998126 0.029242951 -0.052321397 -0.06048124 0.016410617 0.079142556 0.10548568
-0.08067701 0.036555253 0.008574424 0.03500486 -0.009418698 -0.08125612 0.019678462 -0.072890684
0.07618371 -0.08122603 -0.042867023 -0.03161284 0.07331255 0.09324687 -0.06233526 0.07931086
-0.05991152 -0.058177482 -0.09071426 0.0029161468 0.016150113 0.033990193 0.026077438 0.058514576
0.00065838447 0.09790001 -0.07298114 0.07325428 0.07025401 0.077931024 -0.09202496 0.07579121
0.08584303 0.080091074 -0.085492976 0.034122426 -0.012504703 0.07804088 0.03486191 -0.03594489
0.053018637 -0.023061907 -0.09662343 -0.01204741 -0.06398266 0.026369154 -0.04971707 0.02035177
0.040942706 0.005416783 -0.056832954 0.100105114 -0.046573088 0.048389506 -0.03143209 -0.084075816
0.07138694 0.016783405 0.042584457 -0.092567146 -0.032617893 -0.071002826 -0.048392754 -0.08954451

encoder.layers.0.linear1.bias f4 [5]
00000000: 09d8 263c be83 1ebc 5207 18bc 49c8 e2bb
00000010: 6992 653b
0.010183343 -0.0096749645 -0.009279089 -0.0069208485 0.0035029894

encoder.layers.0.linear2.weight f4 [16, 5]
00000000: 086b 57bd 5ee8 5fba 57fc 813d 41d9 773c
00000010: ce60 bfbd bcaf 8c3d 35b2 913d 1a14 943d
00000020: e752 a1bd 1c78 363c 35bd c93b 2df1 cf3c
00000030: 18f1 773d 44ce 913d 8d91 ab3d 78a1 ff3c
00000040: 6540 893d ca5b afbd 6238 8e3d 3592 883c
00000050: d7d4 da3d 8ad3 34bd 92e7 d73d c4da 43bd
00000060: 7a0e 49bd 59bc 0e3d 6413 83bd 92bd 9e3d
00000070: d401 a63d 2cc7 f03c 0c6a 893d 015e b43d
00000080: 8c49 3e3c 2b5d a5bd 7f96 55bd e81a cfbd
00000090: b1df 47bc fd6b b6bd 928d bebd 0974 893c
000000a0: 74b0 ac3d 5db0 8bbd fcf6 7abd df31 733d
000000b0: d60d ae3d 098b 8d3c d047 a03c e65b ea3b
000000c0: ee86 2e3d 211b f03c 82ec 95bd 2059 973d
000000d0: 7d90 a3bd 6cbb 8bbd 599a 7bbc 589b 0cbc
000000e0: 27ec a5bc 5aba 9b3d 044c 9a3d ddab 413d
000000f0: 2940 0bbc 75af 54bd 2b04 863d 3554 4f3c
00000100: 4720 e33c 5920 933c 7ebc 58bd 8a8d a2bd
00000110: 6ca7 43bd a2e2 ccbc a309 9a3d 432c a93d
00000120: edb1 ae3d 4333 603d c7ce ce3d a085 e63c
00000130: 9b30 3bbc 7366 5e3d 9d8c 583d e4a9 98bc
-0.052592307 -0.00085414003 0.06346958 0.015127481 -0.09344636 0.06869456 0.071140684 0.072303966
-0.078771405 0.011137035 0.0061565884 0.025383556 0.06053266 0.0711942 0.08377371 0.031204924
0.067017354 -0.08562429 0.06944348 0.01667128 0.10685127 -0.044147052 0.105422154 -0.047816053
-0.04908607 0.03484759 -0.06400183 0.077510014 0.081058174 0.029391848 0.0670968 0.08806992
0.011614215 -0.08074411 -0.052145477 -0.10112554 -0.012199328 -0.08907316 -0.09304346 0.016778963
0.08432093 -0.06820748 -0.0612707 0.059373733 0.08498733 0.017278211 0.019565493 0.0071520684
0.042609148 0.029309811 -0.07320501 0.07390046 -0.07986543 -0.06822857 -0.015356624 -0.008581959
-0.020254208 0.07603903 0.0753403 0.047283042 -0.008499184 -0.05192514 0.06543764 0.012654354
0.027725352 0.01795976 -0.052914135 -0.07937153 -0.047767088 -0.02501041 0.07521369 0.082603954
0.085300304 0.054736387 0.100980334 0.02813989 -0.011425163 0.054296922 0.052868474 -0.018635698

encoder.layers.0.linear2.bias f4 [16]
00000000: 7655 28bc 00c1 31bc e5f8 053c fd0c 22bc
00000010: 9cc3 263c 5aba 243c 1a81 2b3c 6367 20bc
00000020: 14a7 2c3c 0bd7 223c da8d 1ebc cc08 2bbc
00000030: f9a7 1fbc fe48 2a3c 8672 2d3c e4fa 21bc
-0.010274282 -0.010849237 0.008177017 -0.009890792 0.010178473 0.010054195 0.010467792 -0.009790274
0.010537881 0.009938966 -0.009677375 -0.010439109 -0.009744638 0.010393379 0.010586387 -0.009886477

encoder.layers.0.norm1.weight f4 [16]
00000000: 185d 813f 315c 813f e88c 803f bc65 7d3f
00000010: 6f65 813f 8923 813f 0c38 7d3f 8e5b 7d3f
00000020: 6f5e 7d3f 3c7d 7f3f c325 813f be3e 7f3f
00000030: 2620 813f 1e60 7d3f c946 813f 5bce 7e3f
1.0106535 1.010626 1.0043001 0.9898336 1.010908 1.008897 0.98913646 0.98967826
0.9897222 0.9980047 1.0089649 0.9970511 1.0087936 0.9897479 1.0099727 0.99533623

encoder.layers.0.norm1.bias f4 [16]
00000000: fab4 2cbc 318b 30bc e0a3 0a3c 34a0 25bc
00000010: 0c94 2c3c 98a3 273c 09c2 2b3c 6ffc 24bc
00000020: 36da 2b3c 7f16 273c af44 22bc fa0f 2cbc
00000030: 2f84 29bc cd29 2b3c d5f6 2d3c 09a9 25bc
-0.010541195 -0.010775373 0.008461922 -0.010108996 0.010533344 0.010231875 0.010483273 -0.0100699505
0.010489037 0.010198235 -0.009904071 -0.010501856 -0.010346456 0.010446978 0.010617931 -0.010111102

encoder.layers.0.norm2.weight f4 [16]
00000000: 8a5e 813f 595d 813f 16e4 803f 385d 7d3f
00000010: ab64 813f 9423 813f 833c 7d3f b15b 7d3f
00000020: 1d62 7d3f a0e3 7e3f b718 813f 2f2d 7f3f
00000030: 8639 813f 6562 7d3f 6a47 813f 0612 7e3f
1.0106976 1.0106612 1.0069606 0.98970366 1.0108846 1.0088983 0.9892046 0.98968035
0.98977834 0.9956608 1.0085667 0.9967832 1.009568 0.98978263 1.0099919 0.9924625

encoder.layers.0.norm2.bias f4 [16]
00000000: 4e54 2cbc 827e 30bc c5a4 e73b 3194 28bc
00000010: 3288 2c3c 2c00 263c c961 2b3c 779d 26bc
00000020: 4702 2c3c c35d 273c 999e 25bc 7e3d 2cbc
00000030: d078 29bc dbc9 2a3c 0389 2d3c 1a8c 28bc
-0.010518147 -0.010772349 0.0070692026 -0.010289238 0.010530518 0.010131877 0.0104603255 -0.0101693785
0.01049859 0.010215226 -0.010108613 -0.010512708 -0.010343745 0.010424103 0.010591748 -0.010287309

encoder.layers.1.self_attn.in_proj_weight f4 [48, 16]
00000000: 7c73 b6bb 47ad 26bd 846a 81be 376e a13d
00000010: ebef 163e 0757 acbd 10a6 94be ea85 723e
00000020: d172 2e3e 97ac 0bbd 3b46 92be 0fae 9ebe
00000030: 49eb 97be 85eb d7bd 2ed1 89be bd13 9ebe
00000040: a3d7 bd3d 177a 0cbe e8fa 873c 0cd9 1f3c
00000050: 1346 5d3e 54c4 2dbe 259d 773e 3a06 76be
00000060: 00db 153e c2b7 06be 07cf 02be acc8 073e
00000070: 5ecf e33d ff18 87bc aae4 6c3e 817f 903e
00000080: 4300 903c 833a 0b3e a230 1cbe e63f 69be
00000090: 3075 023d 83a5 8ebe 0e8b 76be e21e 36be
000000a0: 50eb 923e ece9 1abd a10a aa3d 70e1 5abe
000000b0: b233 de3d 9c1e 0e3e fe1d e13d ce6d 40be
000000c0: f6a1 89be a434 33be 061e 5c3e ae5b a3bd
000000d0: bb81 61bc ad0b 8c3e accf 4cbe 61ea 723e
000000e0: 7e29 e3bd 6c59 8d3e 6274 84bd e09c d2bd
000000f0: 6cc8 00be 0a87 263e ef8c 2e3c 4418 eb3d
00000100: d5e7 28bd f936 023e ff87 8d3e 49e4 2f3e
00000110: 1209 ed3d 13b2 71be 65da c23d aa41 55be
00000120: cc7d 153e 7201 e3bd 2cef 053e d799 6cbd
00000130: f889 a3bd af72 933e e200 6ebe d092 6d3e
00000140: 5492 093c 3b14 b33d cf81 1cbd 0a4a c43b
00000150: 4a58 863d 131e fe3d c356 d43d b2ab 51be
00000160: 80f6 0d3e fcbd 85bd 751e 0d3e 265c d23d
00000170: 494d 213e 3f0d 8bbc 5925 45be bb5e 4e3e
00000180: 6f7a 93be f40b 273e 579e 86be e5ec 82be
00000190: 4445 183e 8b8d 6ebe 790c ee3d b084 87be
000001a0: 3d9f eaba 3c1b 50be 5471 c4bd 60f8 9b3e
000001b0: 8129 eb3d 9fb2 75bd dfb8 333e b618 933e
000001c0: ac9d 6e3e 4712 af3d aee8 7bbe d902 9cbc
000001d0: 33d8 fd3d 4f42 89bb 9b82 61be 7553 5fbe
000001e0: 7e1d 9a3e 643a 7cbe ad7e 5f3e 2008 34be
000001f0: 051c 6abe 04f6 cebd 7622 0f3e 9072 9ebe
00000200: e485 a33d 0af7 2fbe 437b 08be 130f 803d
00000210: d8c9 3fbe 695c 8cbc 0f3d 67be 9038 7bbe
00000220: 91c7 313d 2381 96be ee1f 043e d660 2d3e
00000230: f0a5 003e 3280 023d 2b96 1dbe 6fc1 583e
00000240: 849f 2fbe 2770 5abe b360 96be 9e3b 5c3d
00000250: fe37 63bd 2518 06be bb7d 5e3e 10f2 9cbe
00000260: 7112 893e 1e0a 92be 2559 8dbb 610f e0bd
00000270: c5ca 4e3d f7d5 eebd a56f 98bd 68a6 4abe
00000280: d215 c83d 9478 87be 1366 1ebe f32e 37be
00000290: 6191 683e 74be 1e3e 137d 43be e1d6 6e3d
000002a0: 7873 933e cd4f 4f3e f878 b53c 17a5 593e
000002b0: 8c5b 213e 03c3 72be 59b3 26be 1542 a93d
000002c0: d9be 89be e068 223e 8b91 20bc bb08 b3bd
000002d0: 629d fc3d b026 e5bd 6340 cdbc 2541 88be
000002e0: 5768 8b3e 394f 4fbe 4e74 88be 7b8a 5d3e
000002f0: 4ba4 8a3e e60c 423e 7798 5fbe 191c 273e
00000300: 647e 3cbc 260d 85bd 96b7 cf3c d80c 6b3e
00000310: 9bac e6bd e97d f33c 73b5 83bd f4af b7bc
00000320: 3b60 353e 40c3 0e3e 69bf 8bbe 412c 4fbe
00000330: b3c9 d8bd 6cd6 573e 231a 693e 99a1 8e3e
00000340: b5c9 1bbe 9e28 95be 895d 25be a18f 12be
00000350: 9c27 c1bd 4abc acbd e0dd 81be f1fd f43d
00000360: fbea 9bbe 9c00 8d3e 4811 9a3d 44f4 aebd
00000370: fc50 5d3e a76a c33c 71e5 93be 2c82 bebd
00000380: 97e7 fabc b4b3 163e bc26 fd3b 58d4 023e
00000390: 5b4a 873e fde7 2c3e 6c63 583d 896f 70be
000003a0: b8d9 8f3d 154c 773e 308c f03c 5770 8bbc
000003b0: 8404 32bd d367 913e 57f6 563b d2bf 9cbd
000003c0: 2458 3ebe c5da 52be b1df 28be 09b3 5abe
000003d0: de50 873e e182 3cbe 2af3 8ebe cff0 8d3d
000003e0: 497a 63be 497c 503e 6fe2 be3c 207a 03be
000003f0: e681 b83d 0bb2 893d 1d3b c93d 9661 64be
-0.005567966 -0.040692594 -0.25276577 0.0788235 0.14739959 -0.08415037 -0.29032946 0.23683897
0.17035986 -0.03410014 -0.28569207 -0.3099217 -0.29671696 -0.10542969 -0.26917404 -0.30874434
0.09269645 -0.13718449 0.016599134 0.009756338 0.21608762 -0.16969424 0.2418104 -0.24025813
0.14634323 -0.13156036 -0.12774287 0.13260144 0.111235365 -0.016491411 0.23134103 0.28222278
0.01757825 0.13596539 -0.15252927 -0.22778282 0.03185004 -0.2786065 -0.24076483 -0.17785218
0.28695154 -0.03782074 0.083028086 -0.2137506 0.10849704 0.13878864 0.10992049 -0.18791887
-0.2688138 -0.1750055 0.21495828 -0.07976471 -0.01376384 0.27352658 -0.20001096 0.23722221
-0.110918984 0.27607286 -0.06467511 -0.10283828 -0.12576455 0.16262451 0.010653718 0.11479238
-0.041236717 0.12716283 0.2764282 0.17176928 0.11573996 -0.23603086 0.09514312 -0.2082583
0.14598769 -0.1108426 0.13079518 -0.0577639 -0.079853 0.28798434 -0.23242524 0.23200536
0.008396704 0.08744093 -0.038209733 0.0059902715 0.065598086 0.1240808 0.10368111 -0.20475653
0.13863564 -0.06530377 0.1378115 0.10271482 0.15752138 -0.01697409 -0.19252528 0.20153324
-0.28804347 0.16313154 -0.2629268 -0.2557136 0.14870173 -0.23296182 0.11623473 -0.2646842
-0.001790024 -0.20322889 -0.09591928 0.30462933 0.114825256 -0.0599848 0.17550991 0.2872979
0.23302335 0.08548408 -0.24600479 -0.019044327 0.12394752 -0.004188813 -0.22022478 -0.2180918
0.30100626 -0.2463165 0.21825667 -0.17581224 -0.22862251 -0.101055175 0.1397799 -0.3094678
0.07984522 -0.17184082 -0.1332827 0.06252875 -0.18729341 -0.017133908 -0.22581886 -0.24533296
0.043403212 -0.29395398 0.12902805 0.16931471 0.125633 0.031860538 -0.15389316 0.21167539
-0.17150694 -0.21331845 -0.2937065 0.053767793 -0.05547332 -0.13095148 0.2172765 -0.3065343
0.26771882 -0.28523344 -0.0043136054 -0.10940433 0.050486345 -0.11661904 -0.074431695 -0.19790041
0.09769787 -0.2645918 -0.15468626 -0.17889003 0.22711708 0.1550234 -0.19090681 0.058310393
0.28799033 0.20245285 0.022152409 0.21254383 0.15757579 -0.23707204 -0.16279353 0.08264557
-0.26903418 0.15860319 -0.009800325 -0.087418996 0.12334706 -0.1118902 -0.025055116 -0.266122
0.27228042 -0.20245065 -0.26651233 0.21634857 0.2707847 0.18950233 -0.21835504 0.16319312
-0.011504743 -0.064966485 0.025356095 0.22954118 -0.11263391 0.029723125 -0.06431093 -0.022422768
0.1771249 0.1394167 -0.27294472 -0.20231725 -0.10585346 0.21077889 0.22763877 0.27857664
-0.15213664 -0.2913255 -0.16148962 -0.14312603 -0.09431383 -0.08434351 -0.2536459 0.11962498
-0.30452713 0.27539527 0.075228274 -0.08542684 0.21612924 0.023854567 -0.28885987 -0.09302172
-0.030628009 0.14716989 0.0077255648 0.12776315 0.26423916 0.16885372 0.05282919 -0.23480047
0.070239484 0.24150117 0.029363722 -0.017021341 -0.043461338 0.28399524 0.0032800639 -0.07653774
-0.1858831 -0.20591266 -0.16491581 -0.21357359 0.26428884 -0.18409301 -0.27919894 0.06930696
-0.22214617 0.20359911 0.023301331 -0.12839556 0.09009151 0.06723412 0.09825728 -0.22302851

encoder.layers.1.self_attn.in_proj_bias f4 [48]
00000000: 7e32 29bc 4124 1cbc 305a 26bc b373 73bb
00000010: 0286 15bc 4248 123c 29bc 34bb 3d0b 2abc
00000020: ba0c 213c da76 f7bb 7b88 253c c2fd 253c
00000030: e34f ab3b 7888 243c f2cb deba 69a3 1fbc
00000040: fe67 673a dc69 2dbb 6954 553b 3edf 223a
00000050: 789e 3ebb 907d cdbb 5397 ae3b 51c4 69bb
00000060: 4c9b d639 8f92 a2bb 5429 e6bb 3d90 de3b
00000070: ad62 81b7 f369 32bb f75f a6bb abec 97bb
00000080: 0a5f 2abc b16f 1fbc 20a6 273c 43d5 273c
00000090: 1d31 383b 130a 13bc 53f9 273c ecda 23bc
000000a0: 7401 25bc ca8b 9cbb 862f 223c 1cc7 1a3c
000000b0: 8ecd 2ebc 056d 23bc 191b 26bc 43b6 213c
-0.01032698 -0.009530128 -0.010153338 -0.003714782 -0.009126188 0.00892836 -0.0027577973 -0.010378656
0.009829694 -0.00755201 0.01010334 0.010131301 0.005228029 0.010042302 -0.0016998036 -0.00974355
0.0008827447 -0.0026460802 0.0032551533 0.0006213075 -0.0029086154 -0.0062710717 0.005328098 -0.0035669992
0.00040932966 -0.004961319 -0.0070239697 0.006792097 -1.5423948e-05 -0.0027223795 -0.005077358 -0.0046363673
-0.010398636 -0.009731219 0.010232478 0.010243717 0.0028105446 -0.00897457 0.010252315 -0.0100009255
-0.010071147 -0.0047774063 0.009899026 0.009446885 -0.010669125 -0.009974723 -0.0101382965 0.009870115

encoder.layers.1.self_attn.out_proj.weight f4 [16, 16]
00000000: c73e 41be fca8 f23d b704 8bbd 8f91 083e
00000010: 46e6 553c bd3a 45bc 547d 44be 2449 213e
00000020: f706 7ebe be05 523d f857 c1bd e078 a73d
00000030: 9ed8 503e 11f2 2a3e a13c adbd cffe 7ebd
00000040: 2982 47be 6865 cb3d d4f4 4c3e 657c f73d
00000050: 1316 4abe 1934 133e 6c97 4a3e 5f12 9abd
00000060: 5cde 1d3e d21e 253e e3ef 20be 60c5 fa3c
00000070: f2d0 813b ed7b d03d 0388 06be c319 173d
00000080: dfe0 acbc 2a22 8dbd eada 15be bae3 0e3c
00000090: 3983 3abe 4dcc 84bd ee5b 823e b5d6 ab3d
000000a0: 0e17 4cbe 10c0 8bbd 6594 353e 0cdf f4ba
000000b0: bc6d 053e 3ea2 c4bd 19e0 c8bc 9506 a7bd
000000c0: 1d72 4fbd 80a5 59bb 4ae6 103e e867 723d
000000d0: 2ce6 c43d 170c 27bd e39e 773e b735 d03d
000000e0: a4b7 0a3e 8a09 03be 45d7 983c 6895 4a3d
000000f0: 408a eabd 24ab fa3d 9ba1 17be 122b 3bbe
00000100: b246 643e d441 833d 19b3 783e 2aa0 c73d
00000110: 8911 94bd 880a 633e 20ab 5c3e 99be 82be
00000120: 5c2a 413d f487 7dbc ccd2 493e e315 253e
00000130: c301 fb3d 1b36 1ebe b645 fabc 83f8 5a3e
00000140: 49d0 14be f312 043d eaf7 1b3e 5da8 dfbd
00000150: 03c1 41be 7240 2ebe fdb3 303e 8fde 143e
00000160: a26b 813d 4e37 7c3e 4693 f3bd 19d0 0b3d
00000170: 6a29 f3bb 0f03 49be fb42 933d caa2 a93d
00000180: e91d 37be 563b fa3c 9a20 4d3e 947a fb3d
00000190: c7d6 26be 9daf 5ebe 637f 743e c506 de3d
000001a0: b50b 16be 4a58 75be f7fc 3ebe 383c e5ba
000001b0: a3ff 29be 0d3c 683e e87c f6bd ae69 14be
000001c0: 244a ff3c 6f2f 673e fd67 f53d 3435 36be
000001d0: 7229 cf3d b15a 283d 7b61 1bbe 1242 26bb
000001e0: ceee 4c3e f505 84be 0c98 363c 2bfc 963d
000001f0: cfa9 5f3e 4507 cbbd 90a8 433e 0bab c6bd
00000200: 0ef2 17bb e23f 783d 465c 1bbe 7637 a63c
00000210: 5e9c 713e fbcc d73d 3f92 833d 7c6e 2e3e
00000220: 9a46 0b3e bb4b 873d ca05 1c3d 2767 06be
00000230: e131 81be 7636 72be 8bad cfbd f34e 7fbd
00000240: e1cd e4bd 3afd e6bd 1051 433e f892 2b3e
00000250: 9f5e 643e fa30 31be 6a0c 0e3e fac8 fb3d
00000260: 7a89 27be 83c2 8e3d 7fe2 1f3e 48ff 1dbd
00000270: 1216 e1bd b9d0 be3d f4eb a53d 1ac6 07be
00000280: a656 513e 9c2d bc3c b743 ab3d 3961 1dbe
00000290: 05f4 7ebe a46d 52be 69e8 063e e157 fbbd
000002a0: 88e2 313e 072e 963d 7ea2 7bbe a9ca 91ba
000002b0: f575 273e b21c 12be 027d 003d 30bf a5bd
000002c0: 6507 57be 4711 f1bd 778a 15be f6e7 7dbe
000002d0: b72a 133d 3484 f13c e276 263e 7a43 683e
000002e0: 81fd 683d 679b 2c3d a23e d5bd e6af 08bd
000002f0: a90a a0bd a27b 2bbd d71d 56be efba 013e
00000300: 5b29 993d d694 8cbc ff93 03be 3a6f 2bbe
00000310: c5bb 893d e099 4fbe 67c0 c0bd 62a4 b63d
00000320: 6746 f23d 6a75 aebd ea2d 403e fbc9 1abd
00000330: 2ea6 143d 9e9d 093e 2b60 293e 7991 e8bd
00000340: 4afa c5bd 0487 41be a24e 0b3e 5b6e 5fbd
00000350: ae91 cdbd 4f7a 83bd 3349 18be 8bf4 443d
00000360: 1dad 8cbd 87e9 4cbe 4b89 d73d ca67 793e
00000370: ab17 91bd e270 1a3e a9d9 4ebe 4332 413e
00000380: cfce 75be 85ae 833c a55e 5fbe 2db9 cdbd
00000390: d88e 543e 2582 84bd 5c39 6d3d 1bb7 cabc
000003a0: 5603 223d 90e2 573e 7590 303e 5838 083d
000003b0: d65d 13be e60d d1bc fcb5 e73d f66c 6b3d
000003c0: add0 82bd 8c2b 0cbe 226d 53be 21d7 393e
000003d0: 57b2 7fbc 7c53 433d 056f 5b3e c77f 1d3e
000003e0: 7b2c 173d 815a 533e 37a3 853c 4a56 7cbe
000003f0: e6c6 33bd 3510 b83d 510d 44bc 4f30 d23d
-0.18871604 0.118486375 -0.06788009 0.13336776 0.01305539 -0.01203793 -0.19188434 0.15750557
-0.24807344 0.051275007 -0.09440607 0.08177352 0.20395133 0.16693904 -0.0845883 -0.062254723
-0.19483246 0.09931451 0.2001527 0.12084273 -0.19734983 0.14375342 0.19784325 -0.07523035
0.15416855 0.16125038 -0.1571651 0.030611694 0.003961676 0.10179887 -0.13137822 0.036889803
-0.02110332 -0.06891282 -0.1463429 0.008721286 -0.1821412 -0.0648428 0.25460762 0.083905615
-0.1993067 -0.068237424 0.1773239 -0.0018682196 0.13030142 -0.09601258 -0.02452092 -0.08155552
-0.050645936 -0.0033210218 0.14150348 0.059181124 0.09614214 -0.040783014 0.24181704 0.10166495
0.13546616 -0.12796608 0.018657336 0.04945889 -0.1145215 0.12239674 -0.14807741 -0.18278149
0.22292593 0.0640904 0.2428707 0.09747346 -0.07229907 0.22171986 0.21549654 -0.2553604
0.047159538 -0.015474308 0.19709319 0.1612163 0.122561954 -0.15450327 -0.030550819 0.21383862
-0.1453258 0.032244634 0.1523129 -0.109207846 -0.18921284 -0.17016771 0.1725616 0.14538024
0.063193575 0.24630472 -0.118933246 0.034134004 -0.0074207084 -0.19630073 0.0719051 0.08283003
-0.17882504 0.030545872 0.20031968 0.12279239 -0.16292869 -0.21746679 0.23876719 0.10841135
-0.14652903 -0.23959461 -0.18651186 -0.001748926 -0.16601424 0.22679158 -0.12035543 -0.14493439
0.031163283 0.22576688 0.11982725 -0.17793733 0.10115327 0.041102115 -0.15173905 -0.002536897
0.20012972 -0.25785795 0.011144649 0.07372316 0.2184212 -0.09913496 0.1910727 -0.097005926
-0.0023185047 0.0606078 -0.15171918 0.020290118 0.23594806 0.10537144 0.064243786 0.17034334
0.13601151 0.06606241 0.03809146 -0.13125287 -0.25233367 -0.23653588 -0.101405226 -0.06233115
-0.11172081 -0.11278768 0.19073892 0.16755283 0.2230172 -0.1730384 0.13871923 0.122941926
-0.16361037 0.06970694 0.15613745 -0.038573533 -0.10990538 0.093171544 0.08101645 -0.13259163
0.2044321 0.022970967 0.08362525 -0.15369119 -0.24897774 -0.20549637 0.13174595 -0.12272621
0.17371571 0.07332998 -0.24573705 -0.001112302 0.16353591 -0.14268759 0.031369217 -0.08093107
-0.20998915 -0.117708735 -0.14603601 -0.24795517 0.035929408 0.029481985 0.16256288 0.2268199
0.056882385 0.04214039 -0.10412337 -0.033370875 -0.07814533 -0.041865952 -0.2090982 0.12668966
0.07478591 -0.017160814 -0.12849425 -0.16741648 0.06725267 -0.20273542 -0.09411698 0.08918072
0.118298344 -0.08518489 0.18767515 -0.03779028 0.036291294 0.13439032 0.16540591 -0.11355872
-0.096668795 -0.1889916 0.13604215 -0.054548603 -0.10037552 -0.06419813 -0.14871673 0.048084777
-0.06868956 -0.20010959 0.105242334 0.24355999 -0.070845924 0.15082124 -0.20200218 0.1886683
-0.24004672 0.016074428 -0.21813448 -0.10045085 0.20757616 -0.064701356 0.05791603 -0.024745515
0.039553963 0.2108252 0.17242606 0.03325686 -0.14391264 -0.025519323 0.11314008 0.05747696
-0.06387458 -0.13688487 -0.206471 0.18148471 -0.015606484 0.04768704 0.2142907 0.15380774
0.036907654 0.20639993 0.016313178 -0.24642292 -0.043890856 0.08987466 -0.0119660655 0.102631204

encoder.layers.1.self_attn.out_proj.bias f4 [16]
00000000: 4978 2dbc 231a 28bc e2eb 2cbc 603b 24bc
00000010: 4a34 273c d4c4 283c d0a3 293c c2ee 24bc
00000020: f30e 2a3c a5db 213c 8261 25bc 70a3 23bc
00000030: 7b7a 2dbc 433a 263c 8449 313c 4ef5 2abc
-0.01058776 -0.010260138 -0.010554286 -0.010023922 0.010205338 0.010300834 0.010353997 -0.01006669
0.010379541 0.0098790275 -0.010094048 -0.009987697 -0.010588284 0.010145727 0.01082075 -0.010434462

encoder.layers.1.linear1.weight f4 [5, 16]
00000000: a922 00bd d760 a1bd 9e15 a3bb 538e debd
00000010: 421c 6dbc 6771 173d 9d4c d9bb c122 bf3d
00000020: bc77 bebc 5bda b73d 9166 99bb 9f07 6dbd
00000030: 1e11 ddbc dfac 08bc edea 16bd c6ef 91bd
00000040: 7792 843d 7e93 8ebc 77e9 173d c030 8d3d
00000050: 8abf 85bd 6f8b d03a 7dee 04bd d387 ba3d
00000060: 99b2 cdbc 977d 82bd 26f6 ab3d d5ba 4a3d
00000070: 0f10 de3c 5306 f33c 27e9 2d3c 3c43 4a3d
00000080: 36b2 1e3c 17f8 b4bd 2d23 903c 07c5 933d
00000090: 687d 733d f4f7 2a3d 7746 133d d8db de3d
000000a0: 0351 adbd 2751 1f3c ad8b ccbd a625 973d
000000b0: b723 2ebd 3c30 13bd 258b 90bd 3036 913c
000000c0: 1736 a63d 074d 3b3c 27d7 a1bd 912d 0e3d
000000d0: 564c 22bd 249e 7d3c a046 9b3d cba5 77bb
000000e0: b7c6 12bd 0efd 4d3d a3b4 1f3d 2831 64bd
000000f0: 126a c0bd 6090 08bd 83dd b33c d3ea b0bd
00000100: 73e6 e53c afe4 333d 6a28 7d3d 4bbc 8f3d
00000110: f1bf babc f7d3 ef3c 8f69 bdbd 2a64 b1bd
00000120: fd76 25bd 5294 41bd 5038 d53d 49e5 933d
00000130: c44f 5abd 0719 3d3d e39e c23d 82e6 9d3d
-0.031283055 -0.07879799 -0.004976942 -0.1086699 -0.014472069 0.036973383 -0.0066314475 0.09332801
-0.023250453 0.08977195 -0.0046814163 -0.057868596 -0.026985701 -0.008341997 -0.036845136 -0.07125811
0.064732485 -0.017404314 0.037087884 0.06894064 -0.06530674 0.0015910695 -0.032454003 0.09107938
-0.025109576 -0.063716106 0.083965585 0.049494583 0.027107267 0.029666102 0.01061467 0.049380526
0.0096860435 -0.08836382 0.017594898 0.07215314 0.05944577 0.041740373 0.035955872 0.108817756
-0.084627174 0.009723938 -0.099875785 0.07380228 -0.04251453 -0.03593467 -0.0705779 0.017726034
0.081157856 0.011431939 -0.07902365 0.034711424 -0.03962358 0.015479598 0.0758183 -0.003778803
-0.03583404 0.05029016 0.038990628 -0.05571094 -0.09395231 -0.03334081 0.021956211 -0.08638539
0.028063988 0.04391926 0.06180612 0.07018336 -0.022796603 0.029275877 -0.09248649 -0.08661683
-0.04039668 -0.04726059 0.104111314 0.07221467 -0.053298727 0.046166446 0.095029615 0.077099815

encoder.layers.1.linear1.bias f4 [5]
00000000: aaa0 383b 2ae6 2c3c 73ea 303c f524 7dbb
00000010: 3e59 2d3c
0.0028171935 0.010552922 0.010798085 -0.0038626764 0.010580359

encoder.layers.1.linear2.weight f4 [16, 5]
00000000: 1a94 ac3d 79da 58bc 647f 6fbd c04f 593b
00000010: d2ab 81bd 99ec d9bd e231 0fbd 088c 953d
00000020: b092 eb3c 26b6 a5bd 4fc2 6cbc 3a76 883d
00000030: d60f dfbc e5ce b03c 9c01 a7bd 44ff 833c
00000040: 935a c7bd b9d1 db3c 4456 82bd f730 31bc
00000050: 7245 88bd ce8f 503c c4da ce3c c7a3 6e3d
00000060: 8f9e 483d 4e57 49bc 643f b63d 10a8 7dbd
00000070: 069c 7dbc c8c7 4d3d 7fb2 223d 3ca9 a0bd
00000080: 8178 a2bc fa4a 78bd 8fa4 c43d 731a 8f3d
00000090: 2afe 30bd ce22 dabd 382c 94bd fd43 11bd
000000a0: 8bbe 88bd e3a8 503c 54c3 ac3d 2676 093d
000000b0: f4b8 cb3d 16a7 2e3d b20b 8fbd 15e9 9b3d
000000c0: 9eb6 b23d 90d1 5ebd 9d10 7d3d f6b1 03bd
000000d0: acc3 223d 09b9 8a3b b29c af3d a8e7 d0bb
000000e0: 162f 4abc 36bc 373c 5416 72bd b70e 66bd
000000f0: b0b7 70bc a983 853c 3d40 8dbd f5ea 7f3d
00000100: 194b 1f3d af12 543d 1b8a b03d 0cf6 80bd
00000110: faa6 313d ca16 10bd 888c 5c3d 036f c23d
00000120: fa4c 843d b959 ffbc 1b4e 80bd e0cb 9ebd
00000130: d777 893c 2d7f 20bd 6fca 39bc 8690 cfbc
0.08426686 -0.013235682 -0.0584711 0.0033159107 -0.063316 -0.106408305 -0.03495968 0.073020995
0.02875647 -0.08091383 -0.014450624 0.06663175 -0.02722923 0.02158303 -0.08154604 0.016112931
-0.097340725 0.026833402 -0.0636411 -0.010814897 -0.06653871 0.012729598 0.0252508 0.05826166
0.04897934 -0.0122888815 0.088988096 -0.061927855 -0.015479093 0.050239354 0.03972101 -0.07844779
-0.019832851 -0.06061838 0.096016996 0.06987467 -0.04321114 -0.1065117 -0.072349966 -0.03546523
-0.06676968 0.012735578 0.084356934 0.03355994 0.099473864 0.042639814 -0.069846526 0.07612816
0.08726238 -0.054399073 0.06178342 -0.03215214 0.03973739 0.0042334837 0.08574809 -0.006375272
-0.012340328 0.011214307 -0.059103325 -0.056166377 -0.014692232 0.016298132 -0.06897018 0.06247993
0.038889978 0.05177563 0.086200915 -0.0629693 0.043372132 -0.035177983 0.05384496 0.0949383
0.064599946 -0.031170713 -0.062648974 -0.0775373 0.016780777 -0.039183784 -0.011339768 -0.025337469

encoder.layers.1.linear2.bias f4 [16]
00000000: cf41 29bc bbc7 2fbc 0204 28bc 3f66 1fbc
00000010: b4dc 1e3c e5a3 213c 95f7 2a3c 0d14 24bc
00000020: 3a5d 273c ed34 243c 2ecd 17bc 99fc 25bc
00000030: ceca 29bc eb0a 2e3c 219d 2a3c 0ba8 29bc
-0.010330631 -0.010728772 -0.010254862 -0.009728967 0.009696174 0.009865736 0.010435005 -0.010014546
0.010215098 0.010022384 -0.009265227 -0.010131025 -0.010363294 0.01062272 0.010413439 -0.010355006

encoder.layers.1.norm1.weight f4 [16]
00000000: d458 813f 6854 813f a960 813f 0f7b 7d3f
00000010: 1161 813f df34 813f 113f 7d3f 98ab 7d3f
00000020: 1b4f 7d3f 0d88 7e3f ca25 813f bc23 803f
00000030: 279e 803f 4f76 7d3f 3443 813f d8da 7d3f
1.0105233 1.0103884 1.0107623 0.990159 1.0107747 1.009426 0.98924357 0.99089956
0.9894883 0.99426347 1.0089657 1.0010905 1.0048264 0.9900865 1.0098634 0.99162054

encoder.layers.1.norm1.bias f4 [16]
00000000: c7c6 2bbc fecd 2fbc f1c1 27bc b8a0 28bc
00000010: 48d3 293c 6a81 2a3c 0874 2b3c 6002 29bc
00000020: e5b9 2a3c beee 293c ec05 23bc 4aab 2bbc
00000030: a21e 29bc 3acc 2b3c 10c9 2c3c a718 2bbc
-0.010484404 -0.010730265 -0.01023911 -0.010292225 0.010365315 0.010406831 0.010464676 -0.010315508
0.010420297 0.010371862 -0.009950142 -0.01047785 -0.010322245 0.010485703 0.010545984 -0.010442889

encoder.layers.1.norm2.weight f4 [16]
00000000: 0c51 813f d211 813f 5428 813f 5b49 7d3f
00000010: 1d40 813f 7c08 7f3f ac3a 7d3f d060 7d3f
00000020: 954b 7d3f 8c42 7d3f 786e 7d3f 33cd 7d3f
00000030: 9e87 7f3f 5e5c 7d3f bf22 813f 0d4a 7d3f
1.0102859 1.0083563 1.0090432 0.98940057 1.0097691 0.9962232 0.9891765 0.9897585
0.98943454 0.9892967 0.98996687 0.99141234 0.9981631 0.98969066 1.0088729 0.9894112

encoder.layers.1.norm2.bias f4 [16]
00000000: 2c49 2bbc dd02 2cbc b2cf 2ebc b274 29bc
00000010: 7882 2b3c ecfd 293c d142 2a3c a949 2abc
00000020: c02e 2a3c 26c8 293c 6a9f 28bc 506a 2abc
00000030: 658e 2abc 0747 2a3c 2b99 2b3c e3e0 29bc
-0.010454457 -0.01049873 -0.010669636 -0.010342764 0.010468118 0.010375481 0.010391907 -0.0103935385
0.010387123 0.0103626605 -0.0102919135 -0.010401323 -0.010409926 0.010392911 0.01047353 -0.010368559

head.net.0.weight f4 [1, 16]
00000000: 126c 55be 2066 96bd 25b4 f4bc cc59 a9bd
00000010: 789c 143e da0e a83d 491d 6b3e 885a 72be
00000020: 48f5 483e 4d54 eb3d 27ec 37bd 2873 70be
00000030: a63a 76be 533d 713e 5fef 083e 7466 02be
-0.20842007 -0.073436975 -0.029871056 -0.082690805 0.14512813 0.08205958 0.2296039 -0.23667347
0.19624817 0.114906885 -0.044902947 -0.23481429 -0.2404581 0.2355855 0.13372563 -0.12734395
