neuralhydrology/runs/test_run_0703_132218/test_run_0703_154901/model_epoch001.pt (torch, 10628 bytes, 13 tensors)

embedding_net.statics_embedding.net.0.weight f4 [4, 2]
0	0x3f6231f5	0.8835748
1	0xbf3a8a77	-0.7286753
2	0xbf94f9af	-1.1638697
3	0x3f825f80	1.0185394
4	0xbf165ded	-0.5873707
5	0xbf21152c	-0.6292293
6	0x3f9297d6	1.1452587
7	0x3f206d70	0.6266699

embedding_net.statics_embedding.net.0.bias f4 [4]
0	0xbc26e64f	-0.010186746
1	0xbbf72c23	-0.0075431033
2	0x3b44d4b0	0.0030033998
3	0xbbdebd4e	-0.006797469

embedding_net.statics_embedding.net.3.weight f4 [8, 4]
0	0xbefd4a0d	-0.4947056
1	0xbf2f75d3	-0.6853916
2	0x3e508088	0.20361531
3	0x3f079fbb	0.52978104
4	0x3ebc14dd	0.36734667
5	0xbebea9f3	-0.37239036
6	0xbf06b81d	-0.52624685
7	0x3f55505a	0.8332573
8	0x3e49cea8	0.1970774
9	0xbc9c6110	-0.019089252
10	0xbe89b339	-0.2689455
11	0x3ef62a3d	0.480791
12	0x3d937392	0.07199778
13	0x3f516deb	0.81808347
14	0xbf12e763	-0.5738432
15	0x3f010e28	0.50412226
16	0x3ea33dd4	0.3188311
17	0xbed1e9b1	-0.40998605
18	0xbe9815eb	-0.29704222
19	0xbf0f3d96	-0.5595335
20	0x3e6edc11	0.23326136
21	0xbf069973	-0.52577895
22	0x3d6f0710	0.058356345
23	0x3e491d01	0.1963997
24	0x3e8edbaf	0.2790198
25	0x3f4b15a4	0.79329896
26	0xbce8776e	-0.028377261
27	0xbe3fe9db	-0.18741553
28	0xbf0b666a	-0.54453146
29	0x3f32f29b	0.69901437
30	0xbe8c7e3a	-0.27440053
31	0x3e40aff6	0.18817124

embedding_net.statics_embedding.net.3.bias f4 [8]
0	0x3c2b9050	0.0104714185
1	0xbb4f88dc	-0.0031667268
2	0xbc305720	-0.01076296
3	0x3bd21237	0.006410863
4	0x3c200523	0.00976685
5	0xbbdef1e7	-0.0068037394
6	0x3bb95edb	0.0056570596
7	0xbbcaf3e2	-0.006193624

embedding_net.dynamics_embedding.net.0.weight f4 [4, 2]
0	0x3f527860	0.8221493
1	0xbe1dc44b	-0.15406911
2	0xbf5c6d21	-0.8610402
3	0xbf25bbb6	-0.6473955
4	0xbd945ebc	-0.07244632
5	0xbedc131f	-0.42983338
6	0x3ee4e170	0.44703245
7	0xbf4c7620	-0.79867744

embedding_net.dynamics_embedding.net.0.bias f4 [4]
0	0x3c28d158	0.010303818
1	0xbbc3ddd5	-0.005977372
2	0x3c15c616	0.009141466
3	0x3c0c7490	0.008572713

embedding_net.dynamics_embedding.net.3.weight f4 [8, 4]
0	0xbec4e98c	-0.38459432
1	0xbf4f4ab3	-0.80973357
2	0xbdee05d4	-0.116222054
3	0x3e9f37a0	0.31097126
4	0xbe820fd3	-0.25402698
5	0x3d43e32b	0.047824066
6	0xbe223515	-0.15840562
7	0xbd8a6268	-0.06757051
8	0x3ee41c90	0.4455304
9	0x3f051f87	0.5200123
10	0xbe5a808d	-0.213381
11	0xbf260192	-0.64846146
12	0x3db5ef9a	0.08883591
13	0xbc0f81e7	-0.0087589985
14	0x3f1d115a	0.613546
15	0x3f1b6c8d	0.6071251
16	0x3f4401de	0.7656535
17	0xbedd3970	-0.43207884
18	0x3f222603	0.6333925
19	0x3f327f3c	0.69725394
20	0x3f563151	0.83669
21	0x3c60b702	0.013715507
22	0x3f1df3f7	0.61700386
23	0xbea1b839	-0.31585863
24	0x3de578d4	0.11204687
25	0xbf54147c	-0.82843757
26	0x3d0761c1	0.03305221
27	0xbf153a9e	-0.5829257
28	0x3c0599b8	0.008154325
29	0x3f4ab93e	0.7918891
30	0x3cecc1b1	0.028900953
31	0xbdeca7b2	-0.11555423

embedding_net.dynamics_embedding.net.3.bias f4 [8]
0	0xbc2997be	-0.01035112
1	0x3c26f114	0.010189313
2	0x3a968110	0.0011482555
3	0xbc31269e	-0.01081243
4	0x3c2c57a7	0.010518945
5	0x3a67a725	0.0008836857
6	0xbc2297fe	-0.009923933
7	0xbc26f95c	-0.010191288

lstm.weight_ih_l0 f4 [48, 16]
0	0xbe5d96d9	-0.21639575
1	0x3df8cd14	0.121484905
2	0xbda8de48	-0.08245522
3	0x3e34ff6f	0.17675565
4	0x3c372a31	0.011179493
5	0xbbfc831d	-0.0077060596
6	0xbe7641fd	-0.2404861
7	0x3e38ada1	0.18034984
8	0xbe8baff2	-0.27282673
9	0x3d9415c2	0.072307125
10	0xbdde58a6	-0.10856752
11	0x3dceb95d	0.10093949
12	0x3e6ff77a	0.23434249
13	0x3e479136	0.19488987
14	0xbde01e3e	-0.10943268
15	0xbdb36334	-0.08759156
16	0xbe5654bc	-0.20930761
17	0x3dcfd0f6	0.10147278
18	0x3e6ae839	0.22940148
19	0x3e1d4ac9	0.1536056
20	0xbe6da960	-0.23209143
21	0x3e33148f	0.17488311
22	0x3e642682	0.22280315
23	0xbdd51ba2	-0.10405661
24	0x3e2d5a32	0.16928938
25	0x3e33ff08	0.17577755
26	0xbe4bb191	-0.19891955
27	0x3d6cc7ad	0.057807613
28	0xbc920bb7	-0.017827852
29	0x3dc65ee1	0.096860655
30	0xbe0d0f90	-0.13775468
31	0x3d475459	0.048664425
32	0xbafadaf6	-0.0019138742
33	0xbd84995b	-0.06474563
34	0xbe1638a1	-0.1467004
35	0x3c36631d	0.011132029
36	0xbe5dff44	-0.21679407
37	0xbda39a10	-0.079883695
38	0x3e95a3f5	0.29226652
39	0x3da70df9	0.08156962
40	0xbe57c893	-0.21072607
41	0xbda3d461	-0.079994924
42	0x3e52e45d	0.20594926
43	0xba1ae448	-0.00059086503
44	0x3e185b5d	0.14878602
45	0xbde59bb6	-0.1121134
46	0xbce3bc20	-0.027799666
47	0xbdd4c8ab	-0.10389837
48	0xbd197fce	-0.0374754
49	0xbccce5a3	-0.025011843
50	0x3e143710	0.1447413
51	0x3db04c0d	0.086082555
52	0x3ddd108c	0.10794172
53	0xbd3307dc	-0.043708667
54	0x3e91dfb0	0.28490973
55	0x3dc6ec08	0.09712988
56	0x3e19e95a	0.15030423
57	0xbe157bb0	-0.14597964
58	0x3b9dfa15	0.004821072
59	0x3d9ecccd	0.077539064
60	0xbe1beaf1	-0.15226342
61	0x3e02d951	0.12778212
62	0xbe2ff430	-0.17182994
63	0xbe57527b	-0.21027558
64	0x3e78af2b	0.24285571
65	0x3db266b1	0.08710993
66	0x3e951a5c	0.29121673
67	0x3dc49dea	0.09600432
68	0xbd9887ce	-0.07447778
69	0x3e852b94	0.2600981
70	0x3e8662e2	0.26247317
71	0xbe90a3d3	-0.28249988
72	0x3d8214d5	0.0635163
73	0xbc7bc46a	-0.015366653
74	0x3e7e25e7	0.24819146
75	0x3e3be681	0.18349649
76	0x3e13a29c	0.144175
77	0xbe24fd68	-0.16112292
78	0xbd32e656	-0.043676697
79	0x3e832b1e	0.25618833
80	0xbe3740e6	-0.1789585
81	0x3d5a29db	0.053262573
82	0x3e3ac591	0.18239428
83	0xbe10f2a9	-0.14155068
84	0xbe573a7f	-0.21018408
85	0xbe4545ae	-0.19264862
86	0x3e561c33	0.20909195
87	0x3e379ad1	0.17930152
88	0x3d7fbaf1	0.06243414
89	0x3e87e734	0.2654358
90	0xbe097218	-0.1342243
91	0x3d18f07e	0.037338726
92	0xbbdd959b	-0.006762219
93	0xbe6a4bc3	-0.22880463
94	0x3db854db	0.0900056
95	0x3ddbda7e	0.107350335
96	0xbe696335	-0.2279175
97	0x3d03ad6b	0.032147806
98	0x3e6432be	0.22284982
99	0x3e0e883c	0.13919157
100	0xbe2dabc3	-0.16960053
101	0xbe796c0e	-0.24357626
102	0x3e8cf57e	0.27531046
103	0x3e163190	0.14667344
104	0xbe34394e	-0.17599985
105	0xbe8f1875	-0.27948347
106	0xbe54ad4d	-0.20769234
107	0xbca4ea48	-0.020131245
108	0xbe364f1e	-0.17803618
109	0x3e895980	0.26826096
110	0xbe09defc	-0.13463968
111	0xbe24f006	-0.16107187
112	0x3d696736	0.056983195
113	0x3e85bee2	0.26122195
114	0x3e0722c6	0.13196859
115	0xbe506a76	-0.20353112
116	0x3dc29902	0.0950184
117	0x3cef95d5	0.02924625
118	0xbe2d8b93	-0.16947775
119	0xbc956da7	-0.018240763
120	0x3e65ef91	0.22454669
121	0xbe985818	-0.2975471
122	0xbbee0c2b	-0.007264634
123	0x3db47aed	0.08812509
124	0x3e7d9433	0.24763565
125	0xbe07996e	-0.13242123
126	0x3e6388ef	0.22220205
127	0xbdf891f7	-0.121372156
128	0xbc574490	-0.013138905
129	0x3d98700e	0.07443248
130	0xbe3423b9	-0.17591752
131	0x3c6f7ef1	0.0146176675
132	0x3e952809	0.29132107
133	0x3e038eeb	0.12847488
134	0x3da2e339	0.079534955
135	0x3e51840e	0.20460531
136	0x3e12a529	0.14320816
137	0x3d6cbeff	0.057799336
138	0x3d31a8e6	0.043373965
139	0xbe324cd1	-0.17412116
140	0xbe8a7132	-0.27039486
141	0xbe844a69	-0.2583802
142	0xbdf67be6	-0.120353505
143	0xbda366a8	-0.079785645
144	0xbe0944ae	-0.13405105
145	0xbe02d503	-0.1277657
146	0x3e639247	0.22223769
147	0x3e466ed3	0.19378214
148	0x3e8eda59	0.2790096
149	0xbe38e500	-0.18056107
150	0x3e175ca2	0.1478143
151	0x3e145744	0.14486414
152	0xbe483e08	-0.19554913
153	0x3d75f9f8	0.060052842
154	0x3e383a55	0.17991002
155	0xbd8994e7	-0.06717854
156	0xbdee544f	-0.11637174
157	0x3de179d2	0.110095635
158	0x3dca2abb	0.098714314
159	0xbe202806	-0.15640268
160	0x3e7e1f27	0.24816571
161	0x3c8cfd3a	0.017210592
162	0x3dc8e3d2	0.09809078
163	0xbe2010b5	-0.15631373
164	0xbe8c6ae5	-0.27425304
165	0xbe63761d	-0.22213025
166	0x3e0a393d	0.13498397
167	0xbe1c9e0e	-0.15294668
168	0x3e517a00	0.20456696
169	0x3d9854fe	0.07438086
170	0xbe91c224	-0.2846843
171	0x3c5b6a96	0.013392111
172	0x3e33cd19	0.17558707
173	0xbe3489db	-0.17630713
174	0x3d3928b0	0.04520482
175	0xbdbc5d36	-0.09197466
176	0xbe61e4ff	-0.22060011
177	0xbe06f83c	-0.13180631
178	0xbe1c84c4	-0.15285021
179	0xbe915134	-0.28382266
180	0x3cae0685	0.021243343
181	0x3cc79914	0.024364986
182	0x3e3f7fa4	0.18701035
183	0x3e75d9b3	0.24008827
184	0x3da3be99	0.07995338
185	0x3d764d85	0.060132522
186	0xbdfe5d1d	-0.12420104
187	0xbd102319	-0.03518972
188	0xbdbc1687	-0.09183984
189	0xbd49c57a	-0.049260594
190	0xbe7b70dc	-0.24554771
191	0x3e09699d	0.13419195
192	0x3dc6666b	0.096875034
193	0xbd23f42d	-0.040027786
194	0xbe1f7760	-0.15572882
195	0xbe36e897	-0.17862163
196	0x3d93efd5	0.07223479
197	0xbe6a5635	-0.22884448
198	0xbde9653e	-0.113962635
199	0x3daf408d	0.08557234
200	0x3e18b42c	0.1491248
201	0xbda22c20	-0.079185724
202	0x3e5e824c	0.21729392
203	0xbcf0ad1d	-0.029379422
204	0x3d26a1e1	0.040681724
205	0x3e2225b1	0.1583469
206	0x3e355d95	0.1771148
207	0xbe18100e	-0.14849874
208	0xbe080fdb	-0.13287298
209	0xbe5ee973	-0.21768741
210	0x3e1acf24	0.1511808
211	0xbd84d6f9	-0.06486315
212	0xbdbef4bd	-0.09324024
213	0xbd82a59d	-0.063792445
214	0xbe30f22d	-0.17279883
215	0x3d9b6072	0.07586755
216	0xbdbc5a23	-0.0919688
217	0xbe7bdaac	-0.24595135
218	0x3dfb17a8	0.122603714
219	0x3e85ba14	0.2611853
220	0xbd8de549	-0.06928498
221	0x3e330204	0.17481238
222	0xbe61ad9d	-0.22038884
223	0x3e6afbf5	0.22947676
224	0xbe8e26ae	-0.27763885
225	0x3d11a541	0.03555799
226	0xbe75e0e3	-0.24011569
227	0xbe0e2cc4	-0.13884264
228	0x3e7296c7	0.2369033
229	0xbdb542fb	-0.08850666
230	0x3dae03c2	0.084968105
231	0xbcdbd7c9	-0.026836293
232	0x3d528695	0.05139788
233	0x3e805e80	0.25072098
234	0x3e5ce975	0.21573432
235	0x3c94812c	0.018128
236	0xbe152ba6	-0.14567432
237	0xbc40dc2f	-0.011771246
238	0x3dfd836d	0.12378583
239	0x3d867457	0.06565159
240	0xbd552682	-0.052038677
241	0xbe1df852	-0.15426758
242	0xbe60bf26	-0.21947917
243	0x3e586871	0.21133591
244	0xbd273864	-0.040825263
245	0x3d1ced1f	0.038312074
246	0x3e7da03a	0.24768153
247	0x3e212311	0.15736033
248	0x3d51ffdb	0.051269393
249	0x3e78e900	0.24307632
250	0x3c714cb4	0.01472776
251	0xbe8659ab	-0.26240286
252	0xbd6caade	-0.05778014
253	0x3dc5974a	0.09647997
254	0xbc26584a	-0.010152886
255	0x3dfc9bb3	0.12334385

lstm.weight_hh_l0 f4 [48, 12]
0	0x3d3ca35a	0.04605422
1	0x3dc74a5c	0.0973098
2	0x3e713d85	0.23558624
3	0x3e7c0ee3	0.24615054
4	0x3d2e3e00	0.042539597
5	0xbe00d173	-0.12579899
6	0x3e93402c	0.28759897
7	0x3ac4f8d5	0.0015027771
8	0xbe033751	-0.1281407
9	0x3d04bd11	0.03240687
10	0xbe165167	-0.1467949
11	0x3e0f7f26	0.14013347
12	0x3d47a4f0	0.04874128
13	0x3e4f9674	0.20272237
14	0xbc69c87d	-0.014268992
15	0xbd9581ea	-0.0730017
16	0x3e4f8608	0.20265973
17	0x3e2e0853	0.16995363
18	0xbe84b377	-0.2591817
19	0xbcb07f4f	-0.02154508
20	0x3e4b7e25	0.19872339
21	0x3e89d128	0.26917386
22	0xbd87ac9b	-0.06624719
23	0x3a8cdaef	0.00107464
24	0xbde00ca5	-0.10939912
25	0xbe8a5590	-0.27018404
26	0x3e40af95	0.18816979
27	0xbe365e43	-0.17809395
28	0xbe29978b	-0.16561715
29	0x3e253d28	0.1613661
30	0x3e0ae32f	0.13563226
31	0xbd7f9d0e	-0.06240564
32	0x3e701087	0.23443805
33	0xbe96873f	-0.2940006
34	0xbe7f4209	-0.24927534
35	0xbcf182ab	-0.029481253
36	0x3e3baad1	0.1832688
37	0xbe818b3e	-0.25301546
38	0x3e2ebc65	0.17064054
39	0xbdad3008	-0.08456427
40	0xbd94ce0d	-0.072658636
41	0xbdd51a4a	-0.10405405
42	0xbd65293d	-0.05594753
43	0x3e1e4c9f	0.15458916
44	0x3e3c20da	0.18371907
45	0x3d2988bd	0.04139017
46	0xbdf58d99	-0.11989898
47	0x38b1018b	8.440305e-05
48	0xbe1cef26	-0.15325603
49	0xbe896b2f	-0.26839587
50	0xbd4aae9b	-0.049482923
51	0xbdc8d6ac	-0.098065704
52	0xbd5c5caa	-0.05379931
53	0xbe38c3dd	-0.18043466
54	0xbd891c61	-0.06694866
55	0x3e966a72	0.29378086
56	0x3ce77e24	0.02825839
57	0xbd7afbe5	-0.06127538
58	0xbe90a5b9	-0.28251436
59	0xbe0d7279	-0.13813199
60	0x3e704754	0.2346471
61	0x3e7c5f1c	0.24645656
62	0x3dd17aa5	0.10228471
63	0xbd2055b8	-0.039144248
64	0xbe6aa40e	-0.22914144
65	0xbd4c6439	-0.049900267
66	0xbe3a20d0	-0.1817658
67	0xbe304569	-0.17213978
68	0xbe346958	-0.1761831
69	0x3e025fdd	0.12731881
70	0x3c94e951	0.01817766
71	0x3d9c376b	0.07627758
72	0xbe79a801	-0.24380495
73	0xbe1da523	-0.15395026
74	0xbd2e425b	-0.04254375
75	0xbd9bd75d	-0.07609437
76	0xbe214a49	-0.15750994
77	0xbdd68f22	-0.10476519
78	0x3e2acb45	0.16679104
79	0xbd2a0813	-0.041511606
80	0x3e738541	0.23781301
81	0xbd8a56b3	-0.06754818
82	0x3b9bfa1d	0.0047600404
83	0xbe561659	-0.20906962
84	0x3ce4cb31	0.02792892
85	0xbe2b5a2c	-0.16733617
86	0x3e50fd75	0.20409186
87	0x3e11e501	0.14247514
88	0x3ddfc90e	0.1092702
89	0x3c0616e2	0.008184167
90	0x3e096ce9	0.13420452
91	0xbe4ec903	-0.20193867
92	0x3dbb1ffd	0.09136961
93	0xbe9058ad	-0.28192654
94	0x3e0c0593	0.13674001
95	0x3d20ff3c	0.03930591
96	0x3e08e5e8	0.13368952
97	0x3df4d4e7	0.119546704
98	0x3d845ad1	0.06462634
99	0x3e2abb27	0.16672955
100	0xbdf5df84	-0.12005523
101	0xbe2b88e7	-0.16751443
102	0x3e392232	0.1807945
103	0x3e82a39b	0.25515446
104	0xbe684cf2	-0.22685602
105	0xbb81267a	-0.0039413543
106	0x3de45265	0.11148528
107	0xbd5451b1	-0.05183572
108	0x3d608046	0.05480983
109	0xbe6a39ff	-0.22873686
110	0xbe47e849	-0.19522204
111	0x3e186e56	0.1488584
112	0x3e80c976	0.25153702
113	0x3db88f79	0.0901174
114	0x3d813002	0.06307985
115	0xbe43f3c7	-0.19135962
116	0x3e80ef08	0.25182366
117	0x3e465323	0.19367652
118	0x3d34be2f	0.044126686
119	0xbe8cda23	-0.27510175
120	0x3e19d4cd	0.15022583
121	0x3e832b6a	0.2561906
122	0x3dfecec5	0.12441782
123	0x3d818cb9	0.06325669
124	0xbe6263e9	-0.22108425
125	0xbe186a5d	-0.14884324
126	0xbe042571	-0.12904908
127	0x3dbd56f6	0.09245102
128	0xbe74f682	-0.2392216
129	0x3d2d07de	0.04224383
130	0xbd642d14	-0.055707052
131	0xbdb99bb6	-0.09062903
132	0x3dd41bdb	0.103568755
133	0x3d65a114	0.05606182
134	0x3de90a31	0.11378897
135	0xbe812bb1	-0.25228646
136	0x3d138900	0.036019325
137	0xbe44c65b	-0.19216292
138	0xbe04f52a	-0.12984148
139	0x3db7c9a0	0.08974004
140	0xbd3a27e1	-0.045448188
141	0x3e8e7966	0.27826995
142	0x3e54d729	0.20785202
143	0xbe847b9b	-0.25875553
144	0x3e899c8c	0.26877248
145	0x3d238f8e	0.039931826
146	0xbe8a79f7	-0.27046177
147	0xbdba2bdb	-0.09090396
148	0x3d76486b	0.060127657
149	0xbe87f698	-0.26555324
150	0x3da9fb54	0.0829989
151	0x3e0b2d92	0.13591602
152	0xbdd5bdf2	-0.1043662
153	0xbe8e1864	-0.27752984
154	0x3e52ed9b	0.20598452
155	0x3e66f224	0.22553307
156	0x3d8295f1	0.06376255
157	0x3e89b4f2	0.26895863
158	0xbdce8d48	-0.10085541
159	0x3da5c261	0.080937155
160	0xbdb67f4f	-0.08911001
161	0xbe5e1351	-0.21687056
162	0x3d1a101c	0.03761302
163	0x3c929515	0.017893353
164	0x3da99561	0.08280445
165	0xbdc9e92d	-0.09858928
166	0x3d722fb6	0.059127532
167	0xbe1431d2	-0.1447213
168	0xbe7de94d	-0.24796028
169	0xbcaaf96d	-0.020870889
170	0xbe88b32c	-0.26699197
171	0x3e437ea4	0.19091278
172	0xbdf35b8f	-0.11882698
173	0x3e0baf86	0.13641176
174	0xbe4a85eb	-0.19777648
175	0x3cc685f8	0.024233803
176	0xbe0d6560	-0.13808203
177	0xbe009e6d	-0.12560435
178	0x3e6bf613	0.23043089
179	0xbe317ae9	-0.17332043
180	0xbe82b9bf	-0.25532338
181	0x3d1b9134	0.037980273
182	0xbdd40914	-0.10353294
183	0x3e944f2a	0.28966647
184	0x3e280f8f	0.16412185
185	0x3e38513b	0.17999737
186	0xbe85f0ab	-0.26160178
187	0xbe4eac38	-0.20182884
188	0xbe6f5ec2	-0.23375991
189	0x3e8a7b96	0.27047414
190	0x3dcadbad	0.09905181
191	0x3e2c4bb7	0.16825758
192	0xbe88816d	-0.26661244
193	0xbe86c2b1	-0.26320413
194	0x3e2773f8	0.16352832
195	0x3e8205bc	0.25395
196	0xbc3694ee	-0.011143906
197	0x3e20b4dd	0.15693994
198	0xbe7e0f49	-0.24810518
199	0xbe876fca	-0.26452476
200	0xbe3f540c	-0.18684405
201	0xbe51a72d	-0.20473929
202	0x3db3ea54	0.08784929
203	0xbe709e97	-0.23497997
204	0x3c489130	0.012241647
205	0xbd3cbe71	-0.046080057
206	0xbde31482	-0.11087896
207	0xbe171025	-0.14752252
208	0xbdbc9cb8	-0.09209579
209	0x3da0855f	0.078379385
210	0x3dd7c7af	0.105361335
211	0xbba54356	-0.0050434275
212	0xbe89ec50	-0.26938105
213	0x3e3dbce1	0.18529083
214	0x3cac9136	0.021065336
215	0xbd164da5	-0.03669514
216	0xbdd2557c	-0.10270211
217	0x3e866045	0.26245323
218	0x3ceb97ee	0.02875897
219	0x3dd6aeba	0.10482545
220	0xbc22f440	-0.009945929
221	0x3d771bbd	0.060329188
222	0x3c9ba216	0.018998187
223	0x3dc47ddf	0.095943205
224	0x3d2485b5	0.040166575
225	0xbdbdc2c0	-0.09265661
226	0x3e2270ba	0.15863314
227	0x3e65b5e0	0.22432661
228	0xbe20277a	-0.15640059
229	0x3d8e7176	0.06955235
230	0x3e3618ee	0.17782947
231	0xbe1ecada	-0.15507069
232	0xbe7c967c	-0.2466678
233	0xbc3501fe	-0.011047838
234	0xbc8e3704	-0.017360218
235	0x3e5c765f	0.2152953
236	0xbe071f68	-0.13195574
237	0xbdaf400a	-0.08557136
238	0x3b8c6902	0.004284979
239	0xbcc0f4f3	-0.0235543
240	0x3e6d93c2	0.23200896
241	0xbe883bdb	-0.26608166
242	0x3bf81121	0.0075704013
243	0xbe5a2625	-0.21303613
244	0x3e042849	0.12905993
245	0x3e715520	0.23567629
246	0xbe2494c9	-0.16072382
247	0x3e3419de	0.17587993
248	0xbe863e36	-0.26219338
249	0xbde30e57	-0.110867195
250	0xbe830357	-0.25588486
251	0x3e482529	0.19545425
252	0x3e38025d	0.17969652
253	0x3e8b8356	0.2724864
254	0x3e0b6e21	0.1361623
255	0xbe901b1f	-0.28145692

lstm.bias_ih_l0 f4 [48]
0	0xbe64adef	-0.22331975
1	0x3e510e62	0.20415643
2	0x3e785688	0.24251759
3	0x3d85fc40	0.065422535
4	0x3e2925ad	0.16518278
5	0x3e5e3a82	0.21702006
6	0x3c226919	0.009912753
7	0xbe87be8f	-0.26512572
8	0xbe1d933c	-0.15388197
9	0xbe8c1eed	-0.27367344
10	0xbc5bcfda	-0.013416255
11	0xbe6820f2	-0.22668818
12	0xbe88e89b	-0.26739964
13	0x3d57269e	0.052527063
14	0x3e688fd9	0.22711124
15	0xbe6387c9	-0.22219767
16	0xbe5900de	-0.21191737
17	0x3e153c8f	0.14573883
18	0x3e6cd6e9	0.23128857
19	0x3c3d54a4	0.011555824
20	0x3d23caed	0.039988447
21	0x3895d9ef	7.145467e-05
22	0x3dc62176	0.09674351
23	0x3da5a5bf	0.08088254
24	0xbe32a58d	-0.17445965
25	0x3e6c3d0b	0.23070161
26	0xbe60b281	-0.21943094
27	0xbe261909	-0.16220488
28	0xbcbefea9	-0.02331479
29	0x3c787314	0.0151641555
30	0xbceb900d	-0.028755212
31	0x3e6c3bcf	0.2306969
32	0x3e829cfa	0.2551039
33	0x3e2b8e3a	0.16753474
34	0x3c149044	0.009067599
35	0xbe078009	-0.13232435
36	0x3e5034f3	0.20332699
37	0x3d5ad4d7	0.053425636
38	0x3dbceaa1	0.092244394
39	0x3cc8a3ea	0.024492223
40	0xbe427098	-0.18988264
41	0xbe768440	-0.24073887
42	0xbe29dfb9	-0.1658925
43	0xbdd9bd28	-0.10631782
44	0x3e37cac1	0.17948438
45	0x3e5d78ca	0.21628109
46	0x3e68bd70	0.22728515
47	0x3e14dad3	0.145366

lstm.bias_hh_l0 f4 [48]
0	0x3e8d7a1c	0.27632225
1	0x3dbedf9e	0.09319995
2	0xb8f46e8a	-0.00011655416
3	0x3e2d691e	0.1693463
4	0x3e1f66d4	0.1556657
5	0xbd2b5511	-0.041829173
6	0xbde17458	-0.11008519
7	0xbe6d1d8a	-0.231558
8	0xbc505000	-0.012714386
9	0xbe9100bc	-0.28320873
10	0xbc6211b5	-0.013798167
11	0x3e054a09	0.13016523
12	0x403f6553	2.9905593
13	0x403f5b68	2.989954
14	0x4040a669	3.0101569
15	0x40404cab	3.0046794
16	0x403f6e3b	2.991103
17	0x4040167e	3.0013728
18	0x40406083	3.0058906
19	0x403f5ce8	2.9900455
20	0x4040721e	3.0069652
21	0x404078fd	3.0073845
22	0x403f5e8d	2.990146
23	0x4040a903	3.0103157
24	0x3e0bff4b	0.13671605
25	0x3e22f9ab	0.15915553
26	0xbe5f4eb8	-0.21807373
27	0x3cdb8d37	0.026800735
28	0xbd5ddcbb	-0.054165583
29	0x3e7e4c60	0.24833822
30	0xbd6befc2	-0.057601698
31	0xbe2bfd21	-0.1679578
32	0x3e69e8e6	0.2284275
33	0x3e174954	0.14774066
34	0x3d8d7c21	0.06908441
35	0x3dca62c0	0.09882116
36	0x3a2c3316	0.00065688917
37	0x3deb8866	0.11500625
38	0x3d5f8e5d	0.054579128
39	0xbe7e9164	-0.2486015
40	0x3d64e14b	0.05587892
41	0x3e3f3781	0.18673517
42	0x3e1415ce	0.14461443
43	0x3e0b6699	0.13613357
44	0x3dfd9c49	0.12383325
45	0x3e95a7c6	0.29229563
46	0xbe5ee71d	-0.2176785
47	0x3d825a4f	0.06364881

head.net.0.weight f4 [1, 12]
0	0xbe8e319d	-0.27772227
1	0x3e46b32f	0.1940429
2	0xbdd2a371	-0.1028508
3	0xbd8d0894	-0.06886402
4	0xbe5efd45	-0.21776302
5	0x3c75c22a	0.014999906
6	0x3e80a245	0.25123802
7	0x3d1ae7a2	0.03781856
8	0xbe5b3c2f	-0.21409677
9	0x3da5fe8d	0.08105192
10	0xbe099349	-0.13435091
11	0x3ccfa418	0.0253468
