neuralhydrology/runs/test_run_0703_155047/model_epoch001.pt (torch, 6883 bytes, 5 tensors)

lstm.weight_ih_l0 f4 [64, 2]
000000 9b 96 d6 3d 48 c4 56 3e cd 83 e5 bd 8d 98 f1 bd
       0.104779445 0.20973313 -0.1120678 -0.11796675
000010 10 2b 80 3d 14 40 41 3d 2e d8 5f 3e c7 bb 0e be
       0.062582135 0.04718025 0.2185981 -0.13938819
000020 d3 5c 47 3d de 45 f4 3d 57 e4 1d be 8a e9 44 3b
       0.04867251 0.119273886 -0.15419136 0.0030046427
000030 b2 51 05 3e d4 c7 de bd 1c 7d 12 3d b9 fb 6b be
       0.13019446 -0.10877958 0.035763845 -0.23045243
000040 a0 14 4c be 82 2e a1 bd 9d c6 01 bd e8 83 85 3d
       -0.19929743 -0.07870199 -0.031683553 0.065193
000050 6c 78 6e 3d 10 be 8e 3d c3 b9 36 3e a4 72 2c be
       0.058220312 0.06969845 0.178443 -0.16840607
000060 ef 25 15 3e 00 4c 32 be cf 69 21 bd ab e0 c1 bd
       0.14565252 -0.17411804 -0.039407548 -0.0946668
000070 f0 7c 6f be 65 e2 18 3d 16 0c 18 be a6 30 48 bd
       -0.23387504 0.03732528 -0.1484836 -0.04887452
000080 4e b7 90 bd ea f8 d1 3c f3 a9 c4 bd a4 f8 1e 3e
       -0.070662126 0.025631387 -0.09602728 0.15524536
000090 e7 ce 5a 3e c3 4a d5 bd 14 ee 3c 3d 97 9a 6f 3d
       0.2136799 -0.1041465 0.046125486 0.058497038
0000a0 72 cc 00 be 2b 6a 5a be a3 cf 1d be 23 01 04 be
       -0.1257799 -0.21329562 -0.15411238 -0.12891059
0000b0 56 ab cb 3d 1c cf e0 3d ff ba c1 3d d6 d2 0f be
       0.09944789 0.10977003 0.09459495 -0.14045271
0000c0 c6 73 0e 3e 44 cf 7b be 3d f5 b9 bd 9e 97 50 3e
       0.13911352 -0.24590784 -0.090799786 0.20370337
0000d0 9c f1 39 3e eb 7b 17 be e8 29 75 be ac ac 57 3e
       0.18158573 -0.14793365 -0.23941767 0.21061963
0000e0 90 da fc bd ef 1d fd bd 72 26 6d 3e a2 31 04 3e
       -0.12346375 -0.12359225 0.23159197 0.12909558
0000f0 04 61 18 be c2 8e 4a be 67 1f 66 3d 5e 50 1e 3e
       -0.14880759 -0.1978102 0.05618229 0.15460345
000100 e4 0a d4 3d 27 2f d8 bd 8a 7a 1a be f1 2f 70 3e
       0.1035364 -0.105558686 -0.15085807 0.23455788
000110 12 89 53 3d 25 c4 10 b9 12 3d ab bd ee 3e 14 3e
       0.051644392 -0.0001380598 -0.083612576 0.14477131
000120 74 ac a5 3c aa 63 72 3e c0 70 27 be c3 b1 17 3e
       0.020223834 0.23670831 -0.16351604 0.14813904
000130 ae 43 c5 3d 49 4e fb bd a5 99 a8 bd 7a 2e 28 be
       0.096320495 -0.12270791 -0.0823243 -0.1642398
000140 21 66 8e 3d 4b 5b 1b be 71 fc 93 3c f4 0f 5d 3d
       0.06953073 -0.15171544 0.01806471 0.053970292
000150 cc 0d 99 3d 8a 65 70 3e ef 1c 2e bb f6 f8 74 bd
       0.07473335 0.23476234 -0.0026567539 -0.05980774
000160 ff 20 22 be 50 ba 4f 3e ff da a4 bd 3c e7 6a 3d
       -0.158329 0.20285916 -0.08049583 0.05734943
000170 63 39 eb 3d 2a f3 77 3e 34 4e 98 3b cb ac dc bd
       0.11485555 0.24213853 0.0046479944 -0.10775145
000180 ff 1d bf bd b6 9f 1b be 20 df b9 bb 3a 69 66 bd
       -0.09331893 -0.15197644 -0.0056723505 -0.056252696
000190 5e 57 17 be eb 8e 96 bd a8 9f f9 bb 58 bb 8c 3c
       -0.14779422 -0.07351478 -0.0076179095 0.017179176
0001a0 84 00 f7 3d 45 20 21 3e 87 2c 76 3d 23 d5 40 3e
       0.12060645 0.15734966 0.06010106 0.18831305
0001b0 62 c4 11 be 8c 48 54 3e d3 89 09 3e e7 b5 40 3e
       -0.1423507 0.207308 0.13431482 0.1881939
0001c0 17 a3 32 3d 60 6e 9f bd fc 19 01 3e de bf cd bd
       0.043612566 -0.07784724 0.12607569 -0.100463614
0001d0 be 19 a5 3c 59 81 35 3e 05 6c 6a 3e 14 76 33 3e
       0.020153876 0.17725123 0.22892769 0.17525512
0001e0 67 ce 07 be 10 99 a7 3d c3 ef e4 3d 30 6d 60 3e
       -0.1326233 0.08183491 0.111785434 0.21916652
0001f0 44 30 50 3e 97 3b c9 bd f4 db d1 bd 27 1a 53 be
       0.20330912 -0.09825819 -0.10247031 -0.20615445

lstm.weight_hh_l0 f4 [64, 16]
000000 1c 19 31 3e c9 e5 04 bd 1e 25 61 be 5e fe ab 3d
       0.17294735 -0.032445703 -0.21986815 0.08398126
000010 bd 63 ae 3d b1 eb 3e 3d 89 34 0e be 14 e2 19 be
       0.08515117 0.04661149 -0.13887228 -0.15027648
000020 64 d4 70 3e eb 1b a4 3d 0c 92 78 bd b0 ff 3c be
       0.2351852 0.080131374 -0.060686156 -0.18456912
000030 d6 e7 1e be b7 d8 c6 3d 8b 5d 3a 3d 27 29 6d 3e
       -0.15518126 0.09709304 0.045499366 0.2316023
000040 46 f3 30 3e 66 63 f8 bc c8 1d 33 be 53 22 08 be
       0.17280301 -0.030320834 -0.1749183 -0.13294344
000050 5f 93 98 bc b4 e2 b0 bd 04 c5 b1 3d 87 08 26 be
       -0.01862496 -0.0863699 0.08680156 -0.1621419
000060 7b 29 ef bd be 7c 6e be 40 0e 21 bd 53 65 b8 3d
       -0.11677834 -0.23289773 -0.03932023 0.09003701
000070 56 0a 96 bd b1 64 60 3c ea 5a 22 bd 9d 10 5b bc
       -0.0732619 0.013695882 -0.039637484 -0.01337066
000080 3a 68 fb 3d 6f f1 19 3e 7d ef 89 bd b6 97 3f be
       0.12275739 0.15033506 -0.06735132 -0.18710217
000090 2d 07 d1 3c 1e b0 09 bc fe 5c 35 3e 0c 53 2d 3e
       0.025516117 -0.008403806 0.17711255 0.16926211
0000a0 f9 64 68 3e 56 7f ff bd a6 55 41 3e 55 21 4e 3e
       0.22694768 -0.12475459 0.18880329 0.20129903
0000b0 f3 59 77 3e f4 e6 0b 3c 2a 95 32 3e a2 a0 c5 bd
       0.24155407 0.00853895 0.17439714 -0.09649779
0000c0 21 03 04 3d 4f e7 74 be 8c 19 1d 3c 2e 69 32 be
       0.032229546 -0.23916362 0.00958861 -0.17422935
0000d0 02 f1 70 bb 80 20 6a 3e de a4 18 3b 89 c5 08 bd
       -0.0036764746 0.2286396 0.0023291628 -0.03339151
0000e0 f2 dd 39 be e7 6b ec 3d 87 14 95 bd dd ca 16 3e
       -0.18151072 0.11544018 -0.07279306 0.14725824
0000f0 71 91 eb b9 7f 1b 8d bc 08 d3 48 be 48 3e 1a 3e
       -0.00044931055 -0.017225025 -0.19611752 0.15062821
000100 a0 f7 77 be 8a 28 69 3d 5c ae cb bd da de b7 3d
       -0.24215555 0.056923427 -0.09945366 0.089780524
000110 d1 7b 43 3e bf 98 26 3e d7 b6 b5 bd 2a 98 82 bd
       0.19090201 0.16269206 -0.088727646 -0.06376679
000120 51 c5 3f be 58 5b c7 3d 57 5e 4c 3e 9c 1d 0a 3e
       -0.18727614 0.09734219 0.19957863 0.13487858
000130 01 ff 56 be 36 36 11 3e 10 10 46 3e 69 37 a9 bd
       -0.20995714 0.14180836 0.19342065 -0.08262522
000140 94 f3 21 3e 79 d8 21 3e 2b cf 25 be 58 84 21 3d
       0.15815574 0.15805234 -0.1619231 0.039432853
000150 ea fa 07 bc 6f f0 ba 3d 04 55 05 be 14 7f 0f 3d
       -0.008299569 0.0912789 -0.13020712 0.0350333
000160 5d 5e 15 bc 6f 1a 83 bd 66 7f 0d be 22 5a a5 3c
       -0.009116736 -0.06401526 -0.1381813 0.02018458
000170 ed 14 39 be a2 46 7d bd f1 be 7b 3e e3 c4 a7 3d
       -0.18074389 -0.06183494 0.24584557 0.0819185
000180 90 9c 40 be f5 0d a5 bd ee 52 2b 3e f6 cf 06 3c
       -0.18809724 -0.08059303 0.16730854 0.008228293
000190 02 7b ef 3d 7f d6 de bd b2 d6 4b bc 63 9b a0 bd
       0.11693384 -0.10880756 -0.012441324 -0.07842138
0001a0 31 52 1b bd 2e 38 89 bc 65 f6 04 3e 8c 07 95 3d
       -0.03792018 -0.016750421 0.12984617 0.0727683
0001b0 cd 91 a9 3d 1b dd 30 bd 51 6d 72 3e 8c d0 c3 3d
       0.082797624 -0.043179613 0.23674513 0.095612615
0001c0 a6 ee 0f 3e 2b 2e fa bd a4 bd 65 3c b7 93 67 3d
       0.14055881 -0.12215837 0.014022265 0.056537356
0001d0 80 86 01 be d7 cc f8 3d 70 69 23 be 17 e0 3f be
       -0.12648964 0.12148445 -0.1595819 -0.18737827
0001e0 75 62 56 3e a7 cd 9d 3d 1e d4 77 3e 2d ad b7 3d
       0.20935996 0.07705241 0.2420201 0.089685775
0001f0 03 c1 84 bd 1a ed 60 3e c1 7c 68 3e 20 06 78 be
       -0.064821266 0.21965447 0.2270384 -0.24221087
000200 fc 52 4a 3d c3 bb cb bc 72 14 56 3e b1 dd 16 3e
       0.049395546 -0.024869805 0.20906237 0.14733006
000210 3d 64 05 3e 28 f4 15 be 6d 3d 07 bd a8 1a 5b 3e
       0.13026519 -0.1464392 -0.033017565 0.21396887
000220 9e f7 1d be c9 68 3b 3d d0 b6 1a 3e 5f 37 f1 bd
       -0.1542649 0.045754228 0.151088 -0.11778139
000230 d6 72 39 be ce 2e 2c be 5e 32 3a 3e 29 fc 21 3e
       -0.18110213 -0.1681473 0.18183276 0.15818848
000240 f5 bc 70 3d 2b c2 75 3e a2 8e e5 bd 56 59 d6 3c
       0.058773953 0.2399985 -0.11208846 0.026165646
000250 8a 96 30 3b 1e a0 45 be 9b cc 95 3d 7a 16 b3 3d
       0.0026945197 -0.19299361 0.07314416 0.087445214
000260 55 c4 3f be dc 78 09 3d d4 b4 4e 3e 65 75 e5 3d
       -0.18727238 0.033562526 0.20186168 0.11204032
000270 bd 96 1f be 2a c7 5d be 24 0a 7a 3e 5f dd f3 3d
       -0.15584846 -0.21658006 0.24417931 0.119074576
000280 c3 42 1b be a4 f0 72 be c4 ed 32 be 1e 07 7a bc
       -0.15162186 -0.2372461 -0.17473513 -0.015260486
000290 a0 d0 22 be ec 87 71 3e 67 62 f6 bd 85 be 0a be
       -0.15899897 0.23587006 -0.120304875 -0.1354924
0002a0 37 ee 1d 3d 46 11 62 3e 81 59 de 3d 3b 67 28 be
       0.038557258 0.22076902 0.10856915 -0.1644563
0002b0 0d db b3 3d 4e 43 fb 3c f5 88 1c be 02 aa 27 bc
       0.08782015 0.030671742 -0.1528662 -0.010233404
0002c0 0a d0 4c 3e 1e 33 7c be 86 0a af 3b 84 80 a7 3d
       0.20001236 -0.24628875 0.0053418307 0.08178809
0002d0 3f b8 57 3e 25 eb d6 bd d2 12 3b 3e 8f 6d cd bd
       0.21066378 -0.10494069 0.18268898 -0.10030662
0002e0 ae 4e 78 bc 85 45 96 3d 5c 4e 18 be 5f d9 2f 3c
       -0.015155477 0.073374785 -0.14873642 0.010732978
0002f0 4d 88 79 3e d6 bf d3 3d e9 24 96 3d b1 56 3b 3e
       0.24368401 0.10339324 0.07331259 0.18294789
000300 9a 7c 05 3e f3 f6 7e 3d e7 dc 4b 3d e0 04 14 be
       0.13035813 0.062247228 0.049771216 -0.14454985
000310 90 14 7c be 60 a3 68 be 8d 91 d5 bd dc a6 69 bd
       -0.24617219 -0.22718573 -0.10428152 -0.057043895
000320 18 38 f8 bd 4d 41 cc bd cb b9 48 3e df 2e 27 3e
       -0.12120074 -0.09973393 0.19602124 0.16326474
000330 a4 71 6c 3e 89 68 2b be 8a 84 0b 3e a7 d4 0a 3e
       0.23090225 -0.16739096 0.13624778 0.13557683
000340 92 05 28 be 84 a5 80 3d fa 83 2b 3e f7 b3 54 bd
       -0.16408375 0.062815696 0.16749564 -0.05192944
000350 2f e5 de bd f5 93 bf 3d 0a 5c af 3d de d2 04 be
       -0.10883557 0.093543924 0.08562477 -0.12971064
000360 bc 4e 59 3e e9 b3 d8 3c aa 52 b9 3d 75 b8 12 be
       0.21221441 0.026452975 0.0904897 -0.14328177
000370 4e fa 78 be 40 b7 50 be a7 8d fe 3d 0a 59 06 be
       -0.24314234 -0.20382404 0.12429362 -0.13119903
000380 4b 5f 38 3e 6a 9b 7a 3d 50 01 7a be ce 6c d4 3b
       0.18005101 0.06118337 -0.24414563 0.006482697
000390 3a 6e 19 3e 93 f1 1e be 10 e9 12 3d 7a 04 9f bd
       0.14983454 -0.15521841 0.035866797 -0.07764526
0003a0 9f 6d 49 be 8f 8c f3 bd 50 1c 12 be 83 51 70 be
       -0.19670723 -0.11892044 -0.14268613 -0.23468594
0003b0 be 08 bd 3c 2f 10 d4 3c 12 32 1a 3e 1f df 60 3e
       0.023075458 0.025886623 0.15058163 0.21960114
0003c0 27 14 79 3d f6 de 42 3d 0b 91 e0 bd e9 e6 d1 bc
       0.060810234 0.047575913 -0.10965165 -0.025622802
0003d0 0f bc ba bd 9d 1b 46 bd d7 f2 53 be 38 0c 03 3e
       -0.091179006 -0.048366178 -0.20698105 0.1279763
0003e0 2f 46 a8 3d 7d d2 c8 bc e7 20 0d be ba 7a 1d be
       0.082165115 -0.024514431 -0.13782082 -0.15378848
0003f0 4d 17 5b 3d c0 db 55 be 8a 7b c6 bd 9b eb a7 3d
       0.05348902 -0.20884609 -0.09691532 0.08199235

lstm.bias_ih_l0 f4 [64]
000000 0d 55 1a be f7 cb 2f be bf d7 9e 3d 86 25 5c be
       -0.15071507 -0.1716765 0.07755994 -0.21498689
000010 65 61 86 3c f3 50 29 bd 42 e4 b7 bd 6f 86 0c be
       0.016403863 -0.041336965 -0.089790836 -0.13723157
000020 c5 30 ba bd b5 ea 7d 3d 25 ef c5 3d 46 12 21 3a
       -0.09091333 0.061991412 0.09664754 0.00061443856
000030 ea a2 6a be 4f 42 27 3e 89 8f d3 3b 75 89 08 bd
       -0.2291371 0.16333888 0.0064563197 -0.033334214
000040 6c 7a bf bd f6 2c 5e 3e 5f 09 07 3d ef 27 b2 3d
       -0.09349522 0.21696839 0.03296792 0.08699023
000050 cb bc 96 bc ab e4 43 3d c7 f1 97 3c be cc 96 3d
       -0.01840057 0.047825497 0.018547906 0.0736327
000060 63 e5 ff 3c f9 1d af bd a5 ed 10 3e ef 2a 4d 3e
       0.03123731 -0.08550639 0.14153154 0.20035909
000070 11 67 07 be 74 32 87 3d 84 1f 12 3e 08 7c 0d be
       -0.1322291 0.0660142 0.14269835 -0.13816845
000080 82 88 54 be ea 4f f4 3a d3 b8 ce bc ab 2a 44 3e
       -0.20755199 0.0018639539 -0.025234615 0.19156902
000090 92 d7 dd bd 6f 47 8b bd 47 fb 6f 3c 58 99 c9 bc
       -0.108321324 -0.06800734 0.0146473115 -0.024609253
0000a0 9b 8d 4a 3e fb 3d 77 be 9a 74 dd 3b 48 77 30 be
       0.1978058 -0.24144737 0.0067582848 -0.17233002
0000b0 dd b0 ee 3d de 0a 4a 3e 46 29 0f be 0d 10 28 3e
       0.11654828 0.19730708 -0.13980588 0.16412373
0000c0 4d bc 74 be 82 b4 db bd 42 42 58 be 62 81 33 3e
       -0.23899956 -0.107277885 -0.21119025 0.17529824
0000d0 6b d4 19 3e bf 27 68 3e 55 0f 02 3e 83 85 74 be
       0.15022437 0.22671412 0.12701161 -0.23879056
0000e0 a2 09 8c 3c f5 8a 93 3d ce 7c 29 3e 3f df d5 3d
       0.017094437 0.07204238 0.16551515 0.104429714
0000f0 49 23 eb 3d a4 03 2d 3e d0 bf 1d 3e 12 8b 6b 3e
       0.114813395 0.1689592 0.15405202 0.2300227

lstm.bias_hh_l0 f4 [64]
000000 29 a5 a7 bd 2d 97 a7 3d 2c 09 1f 3e bd 2b 97 3d
       -0.08185799 0.08183131 0.15530843 0.07381389
000010 e3 83 12 3e 17 92 29 be dc 29 18 3d bd 34 ec bd
       0.14308123 -0.16559635 0.037149295 -0.115334965
000020 9d 80 8e bd 32 ca ad bd 25 d9 f3 3d 4a d8 32 be
       -0.06958125 -0.08485831 0.119066514 -0.1746532
000030 39 60 a5 bb 2f 7f 12 3e 0c 3d 3a be 41 55 59 be
       -0.005046871 0.14306329 -0.1818735 -0.21223928
000040 b8 2c 40 40 00 d0 3f 40 a6 30 40 40 df ce 3f 40
       3.0027294 2.9970703 3.0029693 2.9970014
000050 cb ce 3f 40 d1 30 40 40 25 30 40 40 0f d0 3f 40
       2.9969966 3.0029795 3.0029385 2.997074
000060 86 2c 40 40 c7 2d 40 40 e0 cf 3f 40 50 dd 3f 40
       3.0027175 3.002794 2.9970627 2.9978828
000070 92 d0 3f 40 19 d0 3f 40 41 cf 3f 40 2b cf 3f 40
       2.9971051 2.9970763 2.9970248 2.9970195
000080 2b b9 4a 3d 18 14 a9 3d 42 85 5c be 65 d6 0c 3e
       0.049492996 0.08255786 -0.21535209 0.1375366
000090 12 96 69 3e 5d a5 03 be c5 26 4c 3e 37 eb b6 3d
       0.22811154 -0.1285605 0.19936664 0.089315824
0000a0 7f 14 30 be c3 40 cf bc a7 88 64 3e 08 1f 1a 3e
       -0.17195319 -0.025299435 0.22317754 0.150509
0000b0 19 61 c6 bc b8 6f 2a 3e 0b f5 dd bd 19 27 7a be
       -0.024216222 0.1664418 -0.10837754 -0.24428977
0000c0 cb 04 61 3e 76 30 92 bd 76 51 63 be a8 4b 7a 3e
       0.21974485 -0.071381494 -0.22199044 0.24442923
0000d0 ff bd 3c 3e 17 05 09 be 31 a1 42 be 3b 82 61 3e
       0.18431853 -0.13380848 -0.19006802 0.22022335
0000e0 99 05 30 be 1c e5 49 be 6d 8e 14 bd 3c bb 79 3e
       -0.17189635 -0.19716305 -0.03626864 0.2438783
0000f0 b3 2c 1e be cc aa 53 be d2 1a 6f be 2e f2 07 3e
       -0.15446739 -0.20670623 -0.23350075 0.13275978

head.net.0.weight f4 [1, 16]
000000 0e 20 44 be e6 cb 72 3e 1a 55 74 be f7 5d 24 be
       -0.19152853 0.23710594 -0.23860589 -0.1605147
000010 ce 2c 00 be 83 48 4c be a2 32 23 3e 42 3e 1d 3e
       -0.12517092 -0.19949536 0.15937284 0.1535578
000020 df 06 21 3e 27 a5 0c 3e 53 06 ea bd d7 d9 75 3e
       0.15725277 0.13734876 -0.114269875 0.2400888
000030 f2 77 f3 bd 4a 53 ad 3d 2b 05 21 3e 66 35 86 bb
       -0.11888112 0.08463152 0.15724628 -0.004095721
